Epoch99.pth (torch, 51217 bytes, 28 tensors)

e_conv1.depth_conv.weight f4 [3, 1, 3, 3]
00000000: 5015 ad3e cd7f 373e 6d63 733e d990 1f3e
00000010: 5580 703d 4bf2 0b3e 7a00 463e 40fc f33d
00000020: 6312 6f3e e2cc 96be a8d5 77be 3ad0 d5be
00000030: fe1a 18be 039b 0bbe 4d19 79be bf0b abbd
00000040: 5122 2fbe 7db3 c8be 113f 2a3e a4ea dfbc
00000050: 2853 a2be 99d5 7a3e 043c 973d af3b b1bd
00000060: 6e32 063f 00ae 843e ba89 e83d
0.33805323 0.17919846 0.23768397 0.15582599 0.058716137 0.13666646 0.1933612 0.11913347
0.23346858 -0.29453188 -0.24202597 -0.41760427 -0.14854047 -0.13633351 -0.24326058 -0.0835185
-0.17102934 -0.3919944 0.1662562 -0.027333565 -0.31704068 0.24495544 0.07384494 -0.08653962
0.524207 0.25914 0.11354394

e_conv1.depth_conv.bias f4 [3]
00000000: 11ec 96be 7a6d 023e b73d 253d
-0.2947698 0.12737074 0.04034206

e_conv1.point_conv.weight f4 [32, 3, 1, 1]
00000000: 7718 433b fb3f 033e 07b3 bfbd 344f 0d81
00000010: e0e7 1c82 8c39 e501 6678 0000 fe82 0080
00000020: 26c8 0080 fc32 0e3e 519d d2be b005 8fbe
00000030: fc96 dc3c d371 123e 6055 34bc ed1a 653c
00000040: 52eb 2a3e 0818 45be 6cd7 d939 3737 6eb9
00000050: c3c0 1638 018e bebe 8eae cd3e 4624 143d
00000060: 7cfd aebe bf87 a53e d7f1 dabe 96c1 53bd
00000070: 1274 90bd 6fa7 323d 5ddf 55b4 cd40 5637
00000080: 6bc3 a7b1 ff75 0000 1214 b085 9c64 0080
00000090: 03c9 0000 2423 0100 77a3 0100 5c86 5ebe
000000a0: 6a92 7e3e e513 e7bd 8b6d b4b4 199c 9633
000000b0: ed18 8ab4 b8f7 0000 6500 0200 19e6 0080
000000c0: e8ef b3bb fed3 f93c d63d 78bd 5a68 03b9
000000d0: c30c 0638 8a54 d3b4 8a30 94be 04d7 7d3e
000000e0: e14a 0abe c2da 1f3d 26ce 37bd 65ac 6c3d
000000f0: 5722 0100 f038 0180 268d 0180 ab5e e13d
00000100: a4ba 95bd 11ee dc3e cfb0 0100 f7f1 0180
00000110: 87d5 0100 7d41 a439 9820 04b9 4b79 aa39
00000120: da56 233e 3701 83be 5b5c 043e a21d 819f
00000130: 7e07 ae2a a947 ec95 3a45 0100 d076 0080
00000140: 9e45 0180 8d2b 0080 ee21 0100 e649 0080
00000150: 7f9b 3891 0e9c 6d12 39ed d511 d476 9da3
00000160: 9bd2 8d22 f949 14a5 2dd0 0080 bd55 0180
00000170: b4f5 0180 3480 65b4 5fc9 46b6 1656 17b4
0.002976922 0.12817375 -0.09360319 -2.5954435e-38 -1.1527615e-37 8.420389e-38 4.3191e-41 -4.6991e-41
-7.18e-41 0.13886636 -0.41135648 -0.27934027 0.026927464 0.14301233 -0.011006683 0.01398347
0.1669133 -0.19247448 0.00041549967 -0.00022718018 3.594231e-05 -0.37217715 0.40172237 0.036167406
-0.34177768 0.3233013 -0.42762634 -0.05169829 -0.07053389 0.04361671 -1.991843e-07 1.2770482e-05
-4.882556e-09 4.2329e-41 -1.6558333e-35 -3.6092e-41 7.211e-41 1.04442e-40 1.50476e-40 -0.21730942
0.2486054 -0.112830915 -3.3607316e-07 7.013313e-08 -2.572264e-07 8.8865e-41 1.83813e-40 -8.2543e-41
-0.0054912455 0.030496594 -0.060605846 -0.00012532008 3.1959975e-05 -3.9363323e-07 -0.28943282 0.24789053
-0.13505127 0.039026983 -0.044874333 0.057781596 1.04154e-40 -1.12261e-40 -1.4247e-40 0.110043846
-0.073109895 0.4315038 1.55262e-40 -1.78636e-40 1.68435e-40 0.0003132931 -0.00012600643 0.00032515297
0.159511 -0.25586864 0.12925856 -5.468265e-20 3.0913808e-13 -9.54327e-26 1.1667e-40 -4.2622e-41
-1.1681e-40 -1.5623e-41 1.04007e-40 -2.651e-41 -1.4562957e-28 7.4976366e-28 3.3751674e-28 -1.70723e-17
3.8441114e-18 -1.2862017e-16 -7.468e-41 -1.22593e-40 -1.79977e-40 -2.1373927e-07 -2.9621513e-06 -1.4094289e-07

e_conv1.point_conv.bias f4 [32]
00000000: 474c 233e 2754 8185 2a95 0180 87b1 7a3e
00000010: ac4d 833e c2aa c93e b0b9 03ba b960 083e
00000020: cc9e 8a3e c2e7 8b3c 3038 1fb7 652a 2e92
00000030: 9b47 0080 40c4 e53e bbbd b633 6d76 0100
00000040: c9c4 9a3d 51d7 8037 d1d4 003f 62ec 2f3c
00000050: a0f0 0180 ceca 8b3e d260 0000 5aba 0bb8
00000060: baed 873d a0f6 dfae bc32 0180 2bb1 0000
00000070: 1290 dc90 82fc 90ab 33db 0080 470e 56b6
0.15947066 -1.2162014e-35 -1.45345e-40 0.24481784 0.25645196 0.3938809 -0.0005024923 0.13318147
0.27074277 0.017078284 -9.490221e-06 -5.4956974e-28 -2.5687e-41 0.4487629 8.509547e-08 1.34319e-40
0.07557065 1.5359054e-05 0.5032473 0.01073751 -1.78155e-40 0.27303165 3.4733e-41 -3.3313736e-05
0.066371396 -1.0184675e-10 -1.10036e-40 6.3556e-41 -8.6996675e-29 -1.03019e-12 -7.8634e-41 -3.1896795e-06

e_conv2.depth_conv.weight f4 [32, 1, 3, 3]
00000000: 6b63 c8b9 95d6 b3ba e588 5139 7ce7 6139
00000010: 3a11 6838 c466 573a f6ce 35bb bca4 16bb
00000020: 7255 67bb 2a41 0180 afa6 0100 1bbf 0100
00000030: 9393 0100 2bb1 0100 e5e3 0100 6deb 0100
00000040: 8d21 0100 0fb9 0100 30fd 0180 88b5 0180
00000050: f6a4 0180 f60b 0200 e4ef 0100 16f2 0100
00000060: 7f03 0200 98b5 0180 2ed1 0180 2eab 12be
00000070: 0af7 89bd a78b f4be 3779 183c a2dd 243e
00000080: 182d c8bd 7f00 dcbd 2d72 5d3d 7d06 54be
00000090: 1911 843c 6bbc 1a3c 57c2 c43b b1bf 8f3b
000000a0: 677d 5e3b 50e3 38bb 0912 b83b bfda ab3b
000000b0: 1e51 13bc ff4a b43d 7242 bb3d 2ba7 943d
000000c0: 1d7b 533d f93a 233d 4281 053e 205b 543e
000000d0: c2af fa3d 29b5 4f3e a525 1d34 6d8a 5534
000000e0: 74c8 0034 cfab d233 53b3 2034 6176 d333
000000f0: 1c1a f833 61a4 1f34 cdbe eb33 2dbe 513e
00000100: 4aed 733e 369e 9d3e e017 af3d 4d64 1b3e
00000110: e862 3e3e e031 8abd 3568 8a3d d17e ff3d
00000120: b6fa afbd 2fcf 8cbc c62a 013e ec91 74be
00000130: 3ed0 1dbe 1b1b c3bd d978 bfbe fce1 40be
00000140: cac1 dcbd 3829 9238 f337 e837 aa51 a2b7
00000150: 7273 d338 6e85 8438 76a5 7537 811c f738
00000160: 2d9e ac38 8c92 3438 3c36 601d 83f2 6d1d
00000170: c4f1 581d 0361 4b1d 0554 561d 12fc 481d
00000180: 17cf 2d1d 7694 3a1d f51d 391d 827f 0100
00000190: a237 0180 e638 0180 dbd9 0100 e18a 0100
000001a0: 869a 0100 adb1 0100 8c9d 0100 a3bc 0100
000001b0: 3172 0000 baf5 0000 58af 0000 f1bd 0080
000001c0: 7314 0080 c778 0000 8c3d 0180 f504 0000
000001d0: e68c 0180 9bc8 8dbe 47c4 19bc 6c14 5d3e
000001e0: 710f 50be 415a 16bd d0f7 da3d 0e6e 3cbe
000001f0: 1474 d4bc 1944 893e a0b0 b22e 7f51 b92e
00000200: 80b9 ee2e 50a5 b02e a479 b72e 3561 eb2e
00000210: d785 ca2e 3855 d22e b3dd 012f b00e 0100
00000220: bb22 0100 b708 0100 692c 0280 76df 0000
00000230: 1a0c 0100 1b07 0280 07cb 0000 0bb9 0000
00000240: 8044 e9b9 a40d 0cba 4be4 1eba 7e91 cdb9
00000250: febc f7b9 3aa0 12ba 73a3 ceb9 de8e f2b9
00000260: 0652 11ba 3efb 30b5 b6b9 21b5 82ec 1cb5
00000270: 7456 21b5 6384 20b5 4e90 22b5 afbd 2ab5
00000280: 050f 37b5 5d21 4ab5 1717 8d3e 8862 543e
00000290: 6864 293e e73f 7ebd 35f8 b33d 2e88 92bb
000002a0: 4a91 4dbe 12b7 e2bb 9b48 84be d560 b437
000002b0: 0c42 24b6 e872 96b7 3d2c 3a38 c839 5237
000002c0: baa3 25b7 e0b9 2b39 5f1e b738 8ba9 8438
000002d0: 49ce 0000 d1de 0100 e64a 0000 e048 0100
000002e0: 5ae9 0100 ddca 0100 a63c 0000 b1de 0100
000002f0: 67e5 0100 be12 073e 057f aabd f6fd 2cbc
00000300: 3426 ff3d ebc5 c3bd ec1f f639 f9ae df3e
00000310: 3a32 cb3d b22a 163e 9c92 0080 deae 0080
00000320: 48ac 0080 25b7 0100 d746 0180 a4dd 0100
00000330: e0ce 0100 064c 0180 f1d3 0100 aa7f 9337
00000340: a98d 9337 7454 8c37 d7cd 9537 6ff0 9537
00000350: caa8 8e37 0c70 9437 24a2 9437 1b69 8d37
00000360: c1a4 013e 17ad 6dbc fd73 79bd 7c8a 623d
00000370: a045 8d3b afc3 2abd fb02 40bd 9746 a0bd
00000380: d71c 3fbe 84c3 0180 f607 0080 8fe7 0080
00000390: 8611 0080 efba 0100 a6d2 0100 59b5 0180
000003a0: b11a 0000 4a86 0180 8b7e 0000 09c5 0080
000003b0: e447 0180 d282 0080 5c26 0080 7747 0180
000003c0: a2d5 0080 9a4f 0100 d444 0000 58f4 0000
000003d0: 4efc 0000 50f3 0000 4ecb 0000 94c8 0000
000003e0: b0d4 0000 c49b 0180 2caa 0180 5aa0 0180
000003f0: e58c ab0a 0a62 df0a a63d c60a 549d bd0a
-0.00038221045 -0.0013720567 0.0001998279 0.00021543907 5.5329154e-05 0.00082169124 -0.0027741767 -0.0022986373
-0.0035298732 -1.15212e-40 1.5163e-40 1.60391e-40 1.44775e-40 1.55391e-40 1.73589e-40 1.7629e-40
1.03871e-40 1.58222e-40 -1.82662e-40 -1.56957e-40 -1.51012e-40 1.87962e-40 1.77892e-40 1.7868e-40
1.84925e-40 -1.56979e-40 -1.66875e-40 -0.14323112 -0.06736572 -0.47762796 0.009306244 0.16100171
-0.09774226 -0.10742282 0.054063965 -0.207056 0.016121434 0.009444336 0.0060046124 0.004386865
0.0033949257 -0.002821166 0.0056173843 0.0052445824 -0.008991508 0.08803367 0.09143533 0.07258447
0.05163108 0.039851163 0.13037589 0.20737886 0.122405544 0.20283951 1.463546e-07 1.988753e-07
1.1993853e-07 9.810139e-08 1.4966399e-07 9.846986e-08 1.1553149e-07 1.486783e-07 1.0977747e-07 0.20482703
0.23820987 0.30784768 0.08549476 0.1517498 0.18592417 -0.06747794 0.06758157 0.1247536
-0.08592741 -0.017188637 0.12613973 -0.2388379 -0.1541147 -0.09526654 -0.37396887 -0.18836206
-0.1077915 6.9695e-05 2.7682609e-05 -1.9349933e-05 0.000100827674 6.319104e-05 1.4641662e-05 0.00011783187
8.231062e-05 4.3051827e-05 2.9674192e-21 3.1492064e-21 2.8712352e-21 2.691698e-21 2.8366101e-21 2.6600097e-21
2.3003422e-21 2.4693648e-21 2.4500034e-21 1.37577e-40 -1.11793e-40 -1.12247e-40 1.69987e-40 1.41656e-40
1.47268e-40 1.55574e-40 1.48353e-40 1.59506e-40 4.0964e-41 8.815e-41 6.2901e-41 -6.8138e-41
-7.336e-42 4.3327e-41 -1.13914e-40 1.778e-42 -1.4238e-40 -0.27692112 -0.009385175 0.21589822
-0.2031839 -0.036707167 0.10691798 -0.18401358 -0.025934257 0.26809767 8.125878e-11 8.4273026e-11
1.08559384e-10 8.032919e-11 8.343484e-11 1.070383e-10 9.209671e-11 9.564832e-11 1.1811245e-10 9.7104e-41
1.04294e-40 9.4962e-41 -1.99602e-40 8.0163e-41 9.6177e-41 -1.8622e-40 7.2832e-41 6.6381e-41
-0.0004449226 -0.0005342609 -0.000606124 -0.00039209047 -0.0004725232 -0.00055933336 -0.0003941316 -0.0004626428
-0.00055435335 -6.5930715e-07 -6.024742e-07 -5.845869e-07 -6.010298e-07 -5.979729e-07 -6.0559694e-07 -6.360596e-07
-6.819467e-07 -7.5299414e-07 0.2755668 0.20740712 0.16542208 -0.06207266 0.08787576 -0.0044718003
-0.20074955 -0.0069187963 -0.25836644 2.1502763e-05 -2.4476349e-06 -1.79349e-05 4.4387056e-05 1.2530429e-05
-9.872887e-06 0.00016377075 8.731777e-05 6.32583e-05 7.4001e-41 1.71767e-40 2.6868e-41 1.17978e-40
1.75546e-40 1.64609e-40 2.1757e-41 1.71722e-40 1.7413e-40 0.13190743 -0.08325008 -0.010558596
0.124584585 -0.09559234 0.0004694456 0.4368818 0.09921689 0.14664724 -5.2594e-41 -6.273e-41
-6.1803e-41 1.57535e-40 -1.17248e-40 1.71345e-40 1.66048e-40 -1.19108e-40 1.67866e-40 1.7583214e-05
1.7589731e-05 1.6728627e-05 1.7858036e-05 1.7874145e-05 1.7006318e-05 1.769515e-05 1.7718477e-05 1.6857453e-05
0.12660505 -0.0145066 -0.06090163 0.05530785 0.0043112785 -0.041690525 -0.046877842 -0.07825964
-0.18663345 -1.61973e-40 -2.856e-42 -8.3068e-41 -6.286e-42 1.58895e-40 1.67402e-40 -1.56891e-40
9.575e-42 -1.4001e-40 4.5395e-41 -7.0683e-41 -1.17625e-40 -4.693e-41 -1.3761e-41 -1.17472e-40
-7.6637e-41 1.20391e-40 2.4691e-41 8.7654e-41 9.051e-41 8.7284e-41 7.2932e-41 7.1954e-41
7.6298e-41 -1.47714e-40 -1.52882e-40 -1.49359e-40 1.65197e-32 2.1510997e-32 1.9089896e-32 1.8259218e-32

e_conv2.depth_conv.bias f4 [32]
00000000: 2de8 b23c 638b e7b8 923e f338 0477 28bd
00000010: 2732 933d 6244 a1bc 7bf6 0e38 5af4 dcbc
00000020: 6c9e 9b3c dcdb 8038 3d75 bab8 63e7 cfb8
00000030: 0468 14b8 bec7 87bd e0c2 0a37 29e8 a138
00000040: 410b fdb9 f504 d8b9 480b e03d 3023 58ba
00000050: 42e0 9cb9 f326 86bd 3b53 2037 6d40 59ba
00000060: 42bf e23c c35e 60ba bc97 4c3a cbc7 053b
00000070: e9b9 0438 42f6 b936 32c5 0e37 2d14 02b9
0.021839226 -0.00011040901 0.000115987976 -0.041129127 0.071873 -0.019685928 3.408499e-05 -0.026971985
0.01899644 6.1444676e-05 -8.8910085e-05 -9.913628e-05 -3.538282e-05 -0.06629895 8.270814e-06 7.7203214e-05
-0.00048264305 -0.00041202424 0.10939652 -0.00082449894 -0.00029921724 -0.06550398 9.556122e-06 -0.0008287493
0.02767909 -0.00085590425 0.00078045926 0.0020413275 3.1644395e-05 5.542098e-06 8.509773e-06 -0.00012405282

e_conv2.point_conv.weight f4 [32, 32, 1, 1]
00000000: 8880 44b9 374e f0b8 b451 c738 02c6 3cbe
00000010: 6ab5 6abb 5dfc 4a3e 8fb4 5d39 03bc 40bd
00000020: 622d fa3c 8081 2e39 f11a aeb8 9522 b9b8
00000030: 72b8 d3b7 ba88 8b3e b314 5a34 4d70 9738
00000040: 79df 22ba 618d fbb9 8a49 2bbe 4682 f1b8
00000050: bb36 90b9 f61f 123e 9d1f d135 9de2 a5ba
00000060: cdb1 30bd 72af ffb8 3bf4 053a f97a bcb9
00000070: 4258 ba37 6f2b c0b6 b485 2936 9bd0 eeb8
00000080: 3d70 0080 a315 0080 adac 0180 9256 9228
00000090: 3572 0000 422a f596 91bd 0100 cdba 0000
000000a0: 808f 0200 1c13 0100 e7ac 0100 987e 0100
000000b0: f8bb 0180 4f26 0080 e0a4 0100 d62c 0080
000000c0: 746b 0000 e005 0100 356d 7200 cfdd 0180
000000d0: 47ed 0080 dc18 95a2 ac3b 0000 587e 0180
000000e0: cab3 0080 ef0a 0100 231e 0100 90da 0100
000000f0: 29c5 0180 923c 0180 39a8 0080 1040 0180
00000100: 4971 fd3a e110 bbb8 79c4 bd38 4847 3fbe
00000110: 2e00 763b b70f 133e 08fe 7bb8 5d62 15be
00000120: 504a aabe b846 a0b7 e7ff 97b8 5774 a6b8
00000130: 9d5f e9b7 8595 2ebe a1fe e536 10a5 8338
00000140: f125 e8b9 1668 bdb9 54d5 0a3c a2c0 05ba
00000150: 3f65 7cb9 6f8a 80be 9904 7db6 4968 50ba
00000160: bf4e a43d 0d63 66ba 84da 053a 0856 893a
00000170: 73ca d037 0a90 8236 1545 f936 17ca d2b8
00000180: 719a 0180 1b19 0200 0d2f 0200 b34e 0100
00000190: e063 0180 1973 0080 aa10 0200 2ef9 0100
000001a0: f87c 0000 a4f1 0180 52fb 0000 5080 0100
000001b0: dd90 0100 0af5 0000 b30d 0200 1ca3 0100
000001c0: dad0 0000 bc43 0080 6d44 0000 c0c0 0100
000001d0: 4a2d 0280 0a3c 0000 15b6 0100 24fa 0100
000001e0: 0a13 0280 44e3 0000 3ae9 0100 723b 0180
000001f0: 151a 0000 b321 0080 bc40 0080 9ff3 0180
00000200: 0a61 0000 d030 0000 6f53 0180 f2b4 0000
00000210: 4c87 0080 4227 0000 6a8c 0180 4951 0000
00000220: 8679 0000 3807 0200 ad4f 0000 c82c 0100
00000230: 299c 0100 c38b 0080 1227 0100 978b 0180
00000240: 9c33 0180 8745 0180 a914 0000 30b8 0180
00000250: 22a0 0000 d95e 0080 3c0e 0000 e7df 0180
00000260: 0272 0000 b4da 0000 9344 0180 0ca7 0100
00000270: 600c 0280 2c34 0180 d2be 0180 6b35 0100
00000280: 409c 0080 82c3 0000 df6c 0100 0c91 0180
00000290: 8855 0100 9053 0080 a12a 0180 21f3 0000
000002a0: 46f4 0100 104a 0180 f7e0 0080 f3fd 0180
000002b0: 0570 0100 4a33 0280 e872 0080 6875 0100
000002c0: d2d0 0000 c91c 0180 1d30 0180 16e9 0080
000002d0: f250 0180 66dd 0080 f1a7 0000 c936 0100
000002e0: 3e48 0180 8945 0180 7f32 0000 cdf4 0100
000002f0: 69e9 0180 9914 0200 6c10 0180 369b 0100
00000300: df7b 0080 ae3c 0100 5c88 0180 41b1 0080
00000310: d7db 0080 5aae 0180 0f89 0180 d4f0 0000
00000320: 613c 0180 dc4d 0180 8d3e 0080 0a6c 0080
00000330: 8597 0180 8f98 0000 935f 0080 fd74 0000
00000340: df9e 0080 6d6e 0100 0002 0100 f1fc 0180
00000350: 8bfb 0000 d7ca 0100 83eb 0080 33ab 0080
00000360: 0d71 0180 27f8 0080 cc67 0100 1b39 0180
00000370: 64f3 0100 aec5 0100 b90c 0080 9a2f 0100
00000380: 28a9 3ebc 9d4a ceb7 3236 5f38 b01c 3dbe
00000390: a547 99bc 3d78 233e 459d 6d39 639f 6cbd
000003a0: 7e48 163e cae3 c8b8 a925 37b8 bda1 49b8
000003b0: eec9 85b7 20b5 28be 289d 1b37 bb61 1e38
000003c0: 3a4e 20b9 2e64 2bb8 50cc 27be e8fc 1bba
000003d0: 64e5 b3b8 d19b 723e 30e4 eb37 dcec 5838
000003e0: 065f 49bd f5a5 3d3a d26f 9439 b04c b7ba
000003f0: 9c24 8937 7345 6437 70d3 e836 df41 78b8
-0.00018739898 -0.000114586604 9.504278e-05 -0.18434909 -0.0035813698 0.19822831 0.00021143466 -0.047054302
0.030539218 0.00016642176 -8.301985e-05 -8.827929e-05 -2.523905e-05 0.27252752 2.0310362e-07 7.221159e-05
-0.00062131096 -0.00047979786 -0.16727272 -0.00011516041 -0.00027506598 0.14270005 1.5580914e-06 -0.0012656037
-0.043138314 -0.00012192027 0.00051099405 -0.00035949776 2.2214026e-05 -5.7271022e-06 2.5260788e-06 -0.0001138758
-4.0264e-41 -7.762e-42 -1.5378e-40 1.62468e-14 4.097e-41 -3.9608553e-25 1.59839e-40 6.7011e-41
2.35149e-40 9.869e-41 1.53861e-40 1.37249e-40 -1.59266e-40 -1.3743e-41 1.50982e-40 -1.6084e-41
3.8547e-41 9.3943e-41 1.0508423e-38 -1.71405e-40 -8.5119e-41 -4.041285e-18 2.1406e-41 -1.37159e-40
-6.4496e-41 9.5758e-41 1.02647e-40 1.70241e-40 -1.62563e-40 -1.13564e-40 -6.0347e-41 -1.14817e-40
0.001933613 -8.919999e-05 9.048818e-05 -0.18679535 0.0037536728 0.14361463 -6.007965e-05 -0.14588304
-0.3325982 -1.9106417e-05 -7.2479066e-05 -7.937167e-05 -2.7820288e-05 -0.17049225 6.8543745e-06 6.277312e-05
-0.00044278757 -0.0003612644 0.008473713 -0.0005102252 -0.0002407031 -0.25105616 -3.7702614e-06 -0.000795011
0.08022832 -0.00087885634 0.0005106109 0.001047791 2.4889805e-05 3.8910703e-06 7.4288205e-06 -0.000100512225
-1.47239e-40 1.92677e-40 2.0055e-40 1.20067e-40 -1.27664e-40 -4.1289e-41 1.89649e-40 1.81224e-40
4.483e-41 -1.7852e-40 9.0157e-41 1.37865e-40 1.43803e-40 8.7903e-41 1.88585e-40 1.50348e-40
7.4922e-41 -2.4299e-41 2.4547e-41 1.60981e-40 -1.99918e-40 2.1538e-41 1.57154e-40 1.81569e-40
-1.90501e-40 8.1528e-41 1.75501e-40 -1.1316e-40 9.356e-42 -1.2089e-41 -2.3222e-41 -1.7923e-40
3.4811e-41 1.751e-41 -1.21766e-40 6.4911e-41 -4.8535e-41 1.4083e-41 -1.42207e-40 2.916e-41
4.3594e-41 1.8626e-40 2.8582e-41 1.079e-40 1.47855e-40 -5.0137e-41 1.05851e-40 -1.41911e-40
-1.1035e-40 -1.16777e-40 7.411e-42 -1.5791e-40 5.7445e-41 -3.4025e-41 5.106e-42 -1.72157e-40
4.0898e-41 7.8456e-41 -1.16435e-40 1.5176e-40 -1.8811e-40 -1.10551e-40 -1.60289e-40 1.10998e-40
-5.6052e-41 7.0135e-41 1.30891e-40 -1.43869e-40 1.22518e-40 -2.9977e-41 -1.07128e-40 8.7218e-41
1.79464e-40 -1.18404e-40 -8.0702e-41 -1.82935e-40 1.3202e-40 -2.0207e-40 -4.122e-41 1.33953e-40
7.491e-41 -1.02162e-40 -1.09095e-40 -8.3615e-41 -1.20873e-40 -7.9423e-41 6.0246e-41 1.11489e-40
-1.17751e-40 -1.1678e-40 1.8115e-41 1.79653e-40 -1.75567e-40 1.9106e-40 -9.7727e-41 1.47515e-40
-4.4437e-41 1.13603e-40 -1.40752e-40 -6.3587e-41 -7.8864e-41 -1.54381e-40 -1.41003e-40 8.6393e-41
-1.13495e-40 -1.19766e-40 -2.2439e-41 -3.8757e-41 -1.4619e-40 5.4728e-41 -3.4286e-41 4.1967e-41
-5.6992e-41 1.31449e-40 9.2553e-41 -1.82574e-40 9.0237e-41 1.64601e-40 -8.4486e-41 -6.1415e-41
-1.3239e-40 -8.902e-41 1.29071e-40 -1.12321e-40 1.79148e-40 1.6275e-40 -4.564e-42 1.08912e-40
-0.01163701 -2.4591858e-05 5.3217816e-05 -0.18467975 -0.01871092 0.15963836 0.00022660669 -0.05776919
0.14676091 -9.579172e-05 -4.3665674e-05 -4.8072765e-05 -1.5948866e-05 -0.16475344 9.275311e-06 3.7761154e-05
-0.00015287931 -4.0862877e-05 -0.16386533 -0.0005950467 -8.5781125e-05 0.23692252 2.8120441e-05 5.1719006e-05
-0.049162887 0.00072345074 0.00028312072 -0.0013984647 1.634872e-05 1.3606029e-05 6.9387534e-06 -5.9189155e-05

e_conv2.point_conv.bias f4 [32]
00000000: 2ffb 22bd 1acd 8caf 2c76 6c3d ff72 0080
00000010: 2868 159a 3322 0000 e143 0080 1458 dfbd
00000020: cdd5 bd91 d158 0180 1128 073e e603 0180
00000030: 6407 0080 0f63 0000 0027 0080 8e20 8b3e
00000040: 1dbc 0000 3737 0100 7efc 6cbd b847 213d
00000050: b619 fe3d d605 0000 f68b 0000 73ed 0080
00000060: 2683 0000 2616 0200 40d2 f83d c109 0000
00000070: c72a 0100 e942 0180 9d7d 0080 2345 0000
-0.03979033 -2.5611585e-10 0.057729885 -4.1253e-41 -3.0896615e-23 1.2268e-41 -2.435e-41 -0.109054714
-2.9950707e-28 -1.23697e-40 0.13198878 -9.3234e-41 -2.651e-42 3.5536e-41 -1.399e-41 0.27173275
6.7482e-41 1.11643e-40 -0.057857983 0.039375037 0.12407248 2.094e-42 5.0209e-41 -8.5181e-41
4.7047e-41 1.91616e-40 0.12149477 3.499e-42 1.07181e-40 -1.15838e-40 -4.5062e-41 2.4802e-41

e_conv3.depth_conv.weight f4 [32, 1, 3, 3]
00000000: 44b2 0100 6f6d 0180 429b 0100 d15d 0000
00000010: 935f 0080 12dc 0000 27f2 0000 ecb8 0100
00000020: f980 0100 f192 0100 411a 0180 6b0b 0180
00000030: cb17 0180 6252 0080 ce17 0080 2306 0180
00000040: 3948 0180 a2e4 0000 aa13 0280 1b35 0100
00000050: b046 0180 9b9e 0080 0860 0100 25ed 0080
00000060: 7922 0100 1e75 0100 c237 0080 e525 0100
00000070: 1446 0180 7fb9 0000 f8b5 0100 8434 0100
00000080: 1412 0000 1126 0100 a4f6 0180 b8c0 0080
00000090: cf0f 0180 01df 0080 36fc 0080 a2d3 0080
000000a0: 6b7e 0180 f83a 0100 1116 0080 b456 0100
000000b0: cb66 0000 619a 0000 7596 0080 a843 0000
000000c0: af4e 0100 2753 0080 0cc1 0180 f164 0100
000000d0: 6e33 0180 e4c0 0000 8111 0200 33f6 0080
000000e0: 7170 0080 4867 0180 ca95 0080 9ba8 0000
000000f0: 6e1d 0000 9ead 0100 3ffb 0080 ba2d 0100
00000100: addb 0000 2662 0180 49f5 0000 3e96 0100
00000110: 628b 0180 c2af 0100 84a2 0000 7a2e 0180
00000120: dfae 0000 0730 0180 c5c4 0000 45db 0100
00000130: a5c7 0000 f81a 0280 b3d3 0000 9e55 0180
00000140: 3960 0100 6fce 0000 d538 0000 e782 0080
00000150: a946 0180 8822 0100 7b21 0080 4250 0180
00000160: e409 0180 0771 0180 f1b7 0180 e0f1 0000
00000170: 596e 0100 1ead 0000 b5a2 0080 5530 0180
00000180: 1b57 0180 4748 0180 07dc 0000 4cbd 0080
00000190: 31a0 0080 9c9b 0080 0750 0080 64e8 0080
000001a0: 1881 0000 5c53 0080 580c 0180 eff9 0000
000001b0: 6ea2 0080 0459 0100 1631 0000 d0a6 0100
000001c0: 0d7a 0180 e631 0280 8c08 0100 072c 0100
000001d0: 0bb2 0180 e2ac 0000 3b00 0280 c2bc 0080
000001e0: b920 0080 d984 0180 0946 0100 e327 0000
000001f0: c194 0000 0511 0000 aed0 0000 4732 0100
00000200: 92cd 0000 bb1e 0080 ab0f 0200 80ac 0000
00000210: 8a91 0180 2271 0000 5a02 0000 a2c5 0100
00000220: 160a 0280 9263 0080 5315 0080 1721 0000
00000230: 6822 0080 178d 0080 0e01 0280 39ef 0000
00000240: 0061 0000 d426 0080 e0e8 0100 81aa 0080
00000250: 4061 0000 4f49 0180 e945 0100 d9e4 0080
00000260: fe2e 0100 ed6d 0100 8659 0100 a853 0080
00000270: aca6 0180 79b2 0100 c373 0180 0c37 0180
00000280: 8b0c 0200 5e7c 0100 4ff8 0180 4e96 0000
00000290: 0b91 0080 ee48 0180 2a28 0180 a6a7 0100
000002a0: de1e 0100 00ee 0100 8848 0000 d693 0180
000002b0: a73b 0000 0848 0100 38ad 0180 78bc 0080
000002c0: 354c 0100 4dfd 0100 095f 0180 e854 0080
000002d0: a6a6 0000 788d 0100 51f1 0080 ee4d 0080
000002e0: 48e5 0080 b5e2 0080 1a83 0000 d3d6 0180
000002f0: 0523 0080 f984 0080 bfb9 0180 735f 0100
00000300: e97e 0080 fb20 0080 bf4e 0180 8127 0100
00000310: ae5d 0080 8606 0080 9eb4 0080 dcd5 0180
00000320: 34e8 0180 02a8 0180 77af 0000 6b24 0180
00000330: 2ee5 0000 cf2e 0280 59e1 0000 fd1b 0080
00000340: c203 0080 3a2f 0080 1c0c 0200 e86a 0180
00000350: 5f1f 0080 70de 0000 78e2 0180 fe10 0100
00000360: fe3f 0000 1206 0200 a609 0100 1a3d 0080
00000370: 0d38 0080 b602 0100 ca57 0000 9087 0180
00000380: f001 0200 269b 0100 642a 0100 5610 0100
00000390: edf3 0000 0464 0080 b3d9 0080 9c0f 0000
000003a0: d8dd 0080 f2fd 0000 22e9 0000 c146 0180
000003b0: 3285 0080 3f72 0180 34f2 0080 a10d 0000
000003c0: 4d1d 0100 0f31 0000 73d4 0080 4a5e 0080
000003d0: 902d 0180 733e 0000 82b6 0000 d600 0080
000003e0: 71d9 0000 762c 0000 973f 0180 d773 0080
000003f0: 2cd4 0180 8a3c 0100 5fe3 0180 4abc 0000
1.55785e-40 -1.31093e-40 1.47532e-40 3.3655e-41 -3.4286e-41 7.8946e-41 8.6868e-41 1.58173e-40
1.38102e-40 1.44548e-40 -1.01254e-40 -9.5931e-41 -1.00371e-40 -2.9553e-41 -8.54e-42 -9.4037e-41
-1.17744e-40 8.2018e-41 -1.90725e-40 1.10886e-40 -1.17193e-40 -5.6897e-41 1.26285e-40 -8.5071e-41
1.04202e-40 1.33849e-40 -2.0002e-41 1.0543e-40 -1.16975e-40 6.6543e-41 1.57114e-40 1.10675e-40
6.485e-42 1.05491e-40 -1.80313e-40 -6.9134e-41 -9.7507e-41 -7.9999e-41 -9.0476e-41 -7.592e-41
-1.37186e-40 1.1299e-40 -7.916e-42 1.22939e-40 3.6875e-41 5.5381e-41 -5.3974e-41 2.427e-41
1.20062e-40 -2.983e-41 -1.61088e-40 1.28046e-40 -1.10285e-40 6.9196e-41 1.8995e-40 -8.832e-41
-4.0336e-41 -1.28886e-40 -5.3734e-41 6.0484e-41 1.0557e-41 1.54118e-40 -9.013e-41 1.08239e-40
7.8805e-41 -1.27045e-40 8.7992e-41 1.45732e-40 -1.41837e-40 1.54886e-40 5.83e-41 -1.08508e-40
6.2732e-41 -1.09064e-40 7.0588e-41 1.70495e-40 7.1619e-41 -1.93346e-40 7.5943e-41 -1.22549e-40
1.26354e-40 7.4054e-41 2.0387e-41 -4.6959e-41 -1.17184e-40 1.04223e-40 -1.201e-41 -1.20627e-40
-9.5384e-41 -1.32382e-40 -1.57821e-40 8.6768e-41 1.31421e-40 6.2103e-41 -5.8368e-41 -1.09174e-40
-1.23083e-40 -1.17764e-40 7.8931e-41 -6.7907e-41 -5.7466e-41 -5.5822e-41 -2.8708e-41 -8.3366e-41
4.631e-41 -2.9904e-41 -9.6264e-41 8.9659e-41 -5.8269e-41 1.23768e-40 1.7609e-41 1.51677e-40
-1.35619e-40 -2.01571e-40 9.4902e-41 1.0763e-40 -1.55705e-40 6.2019e-41 -1.83754e-40 -6.7714e-41
-1.1739e-41 -1.39492e-40 1.1696e-40 1.4309e-41 5.3363e-41 6.105e-42 7.486e-41 1.09872e-40
7.3745e-41 -1.1024e-41 1.89292e-40 6.1881e-41 -1.44045e-40 4.0584e-41 8.44e-43 1.62733e-40
-1.87289e-40 -3.5719e-41 -7.65e-42 1.187e-41 -1.2343e-41 -5.0613e-41 -1.8405e-40 8.5817e-41
3.4797e-41 -1.3929e-41 1.75375e-40 -6.1165e-41 3.4887e-41 -1.18134e-40 1.16915e-40 -8.2095e-41
1.08693e-40 1.3127e-40 1.2395e-40 -3.001e-41 -1.51626e-40 1.5586e-40 -1.33363e-40 -1.11583e-40
1.8817e-40 1.3645e-40 -1.80912e-40 5.3919e-41 -5.2032e-41 -1.17998e-40 -1.06244e-40 1.51976e-40
1.02909e-40 1.77214e-40 2.602e-41 -1.44869e-40 2.1399e-41 1.17675e-40 -1.53975e-40 -6.761e-41
1.19173e-40 1.82703e-40 -1.25928e-40 -3.0459e-41 5.9782e-41 1.42585e-40 -8.6568e-41 -2.7956e-41
-8.225e-41 -8.1327e-41 4.703e-41 -1.689e-40 -1.2563e-41 -4.7702e-41 -1.58469e-40 1.26076e-40
-4.5527e-41 -1.1831e-41 -1.20084e-40 1.06007e-40 -3.3606e-41 -2.34e-42 -6.4793e-41 -1.68554e-40
-1.75134e-40 -1.52105e-40 6.2945e-41 -1.049e-40 8.2214e-41 -2.00463e-40 8.084e-41 -1.004e-41
-1.348e-42 -1.6942e-41 1.88015e-40 -1.30186e-40 -1.1254e-41 7.9796e-41 -1.73077e-40 9.7931e-41
2.2956e-41 1.85849e-40 9.5297e-41 -2.1919e-41 -2.0107e-41 9.2808e-41 3.1493e-41 -1.40466e-40
1.84366e-40 1.47492e-40 1.07042e-40 9.7696e-41 8.7504e-41 -3.5879e-41 -7.8096e-41 5.6e-42
-7.9583e-41 9.1098e-41 8.3632e-41 -1.17217e-40 -4.7781e-41 -1.32819e-40 -8.6886e-41 4.889e-42
1.02347e-40 1.7599e-41 -7.6212e-41 -3.3825e-41 -1.0818e-40 2.2403e-41 6.5471e-41 -3e-43
7.8003e-41 1.595e-41 -1.14647e-40 -4.1556e-41 -1.67948e-40 1.13553e-40 -1.73401e-40 6.7545e-41

e_conv3.depth_conv.bias f4 [32]
00000000: be19 0100 7b0e 0100 b740 0000 ac38 0100
00000010: 4b26 0000 7a15 0280 0c57 0100 fc93 0180
00000020: 7712 0180 cdfd 0080 9fd6 0100 fd00 0080
00000030: 072c 0000 d18b 0180 4d2c 0180 66dc 0100
00000040: e0a6 0080 5c34 0180 950a 0080 5dbe 0180
00000050: a321 0080 3951 0100 ebc4 0100 92f8 0080
00000060: 4517 0080 065f 0000 0400 0080 2e20 0180
00000070: c10f 0180 1075 0000 7451 0000 9bda 0080
1.0107e-40 9.703e-41 2.3215e-41 1.12166e-40 1.3737e-41 -1.91375e-40 1.23062e-40 -1.44922e-40
-9.846e-41 -9.1047e-41 1.68827e-40 -3.55e-43 1.5794e-41 -1.41992e-40 -1.07728e-40 1.709e-40
-5.9863e-41 -1.10619e-40 -3.796e-42 -1.60125e-40 -1.2067e-41 1.20973e-40 1.62476e-40 -8.917e-41
-8.348e-42 3.4088e-41 -6e-45 -1.0338e-40 -9.7487e-41 4.1994e-41 2.922e-41 -7.8421e-41

e_conv3.point_conv.weight f4 [32, 32, 1, 1]
00000000: 1bd7 0080 65d9 0080 92db 0080 53c2 0000
00000010: 073b 0080 8f3c 0180 c204 0100 3685 0080
00000020: bc2c 0100 a78a 0180 b9f4 0000 bf23 0100
00000030: 0121 0080 bd6a 0180 e506 0000 198c 0180
00000040: 7ea0 0080 682e 0100 947b 0100 c435 0200
00000050: 8958 0000 d7e3 0180 7a12 0080 c800 0180
00000060: 2647 0000 5f13 0100 5ecc 0000 0689 0000
00000070: 85a5 0000 90ce 0100 f860 0100 f64c 0180
00000080: f778 0000 4826 0000 d9b9 0000 7676 0100
00000090: b69e 0100 33e2 0080 7b57 0080 171e 0180
000000a0: 71e9 0080 484e 0000 f3a6 0080 9134 0080
000000b0: 868c 0080 4226 0180 d941 0180 c703 0080
000000c0: 9869 0180 d576 0100 9157 0100 4c7e 0000
000000d0: dd4b 0100 59ff 0080 7955 0000 cb4b 0180
000000e0: 6ecf 0080 d94c 0180 6104 0100 5d42 0080
000000f0: 065d 0080 3009 0200 dc61 0000 da66 0180
00000100: 1f38 0100 7f66 0000 9fac 0080 913a 0100
00000110: c606 0080 2fd4 0180 baf9 0180 8f02 0180
00000120: 063e 0180 cafc 0080 737e 0100 7404 0000
00000130: 2730 0180 9780 0180 7183 0080 d7b5 0100
00000140: c1f6 0000 2316 0280 7d28 0100 fa27 0100
00000150: 1c01 0100 70f8 0080 be4b 0180 0529 0280
00000160: 3581 0000 bdf5 0080 b7b1 0180 dc87 0080
00000170: 16fc 0100 46a4 0080 0a54 0080 a735 0080
00000180: d1ff 0000 ca94 0080 5c2d 0100 6a63 0080
00000190: 4045 0100 d774 0100 e846 0000 2676 0180
000001a0: 3276 0080 141e 0000 0245 0100 5231 0100
000001b0: c0a2 0100 3a03 0000 5ef8 0000 b5a4 0180
000001c0: 9705 0100 11c1 0080 a65f 0180 e177 0180
000001d0: d6e1 0180 2322 0100 fedb 0000 665c 0000
000001e0: a32e 0000 d54d 0100 5519 0080 7561 0000
000001f0: 5826 0200 1c94 0100 1152 0100 862e 0100
00000200: 5a75 0000 ae3b 0180 1768 0180 2b66 0000
00000210: 8a4d 0180 28be 0080 a63b 0080 6108 0100
00000220: 7fad 0000 6893 0080 531e 0100 a88b 0080
00000230: f8ba 0180 7bb8 0000 4949 0080 c944 0180
00000240: 229b 0180 9254 0000 158d 0180 1477 0080
00000250: 62b4 0180 2878 0000 3f19 0180 b630 0080
00000260: f658 0180 9e38 0100 2ba7 0180 3633 0180
00000270: c6c8 0180 a068 0080 a1fe 0180 5841 0080
00000280: 8d7d 0180 6d0f 0000 f131 0000 1f74 0000
00000290: 4bf2 0080 c8b9 0180 5621 0180 51fe 0180
000002a0: 902e 0100 2cc7 0000 62aa 0000 404d 0180
000002b0: 3350 0080 ace0 0080 848e 0100 032a 0100
000002c0: dc35 0180 b255 0180 eb32 0080 35f4 0080
000002d0: 547e 0080 0429 0180 b8d7 0080 413a 0180
000002e0: 2cd2 0000 b1f0 0000 a823 0180 6d15 0000
000002f0: b04b 0100 e03b 0100 9f82 0000 b415 0000
00000300: fe81 0000 ed39 0100 4c0b 0000 a00c 0080
00000310: 5e2e 0100 e29a 0080 4c4e 0080 0502 0180
00000320: fc20 0180 0227 0080 2d6c 0100 53f0 0180
00000330: b793 0180 b7cf 0080 c724 0200 dda0 0100
00000340: 536f 0100 0808 0000 e833 0000 ac6b 0000
00000350: a163 0180 5204 0280 8a98 0000 657a 0100
00000360: 7664 0180 c729 0180 850d 0000 28a2 0180
00000370: 1f01 0200 340b 0180 3c18 0000 5cf8 0000
00000380: 6aa6 0100 454d 0180 065e 0180 0d2a 0080
00000390: f024 0180 7058 0000 e27f 0180 fec8 0080
000003a0: e718 0000 e127 0000 25d7 0080 ef33 0000
000003b0: a6fb 0180 6d13 0100 0847 0180 bbbc 0080
000003c0: 75d8 0080 21fb 0080 c0b3 0080 412c 0180
000003d0: 3ac1 0080 f64b 0000 c0a8 0000 f0ed 0080
000003e0: 7970 0100 c1ba 0180 941a 0000 0456 0180
000003f0: 1f8d 0180 7a89 0000 033c 0180 7c00 0180
-7.7165e-41 -7.7986e-41 -7.8767e-41 6.971e-41 -2.1175e-41 -1.1356e-40 9.3542e-41 -4.7787e-41
1.07883e-40 -1.41575e-40 8.779e-41 1.04659e-40 -1.184e-41 -1.30126e-40 2.473e-42 -1.42093e-40
-5.7574e-41 1.08483e-40 1.36167e-40 2.02958e-40 3.176e-41 -1.73569e-40 -6.628e-42 -9.2116e-41
2.5523e-41 9.8785e-41 7.3313e-41 4.9155e-41 5.9377e-41 1.65936e-40 1.26621e-40 -1.19444e-40
4.3394e-41 1.3733e-41 6.667e-41 1.34331e-40 1.4877e-40 -8.1145e-41 -3.1382e-41 -1.0263e-40
-8.3743e-41 2.8082e-41 -5.989e-41 -1.8857e-41 -5.041e-41 -1.0556e-40 -1.15457e-40 -1.355e-42
-1.29715e-40 1.34464e-40 1.23248e-40 4.5307e-41 1.1905e-40 -9.1601e-41 3.0662e-41 -1.19025e-40
-7.4412e-41 -1.19403e-40 9.3406e-41 -2.3807e-41 -3.337e-41 1.86967e-40 3.5105e-41 -1.28732e-40
1.11968e-40 3.6769e-41 -6.1925e-41 1.12845e-40 -2.43e-42 -1.67953e-40 -1.8142e-40 -9.2753e-41
-1.14085e-40 -9.0684e-41 1.37197e-40 1.597e-42 -1.0911e-40 -1.37965e-40 -4.7152e-41 1.57067e-40
8.8519e-41 -1.91612e-40 1.0636e-40 1.06176e-40 9.2233e-41 -8.9123e-41 -1.19007e-40 -1.98386e-40
4.6351e-41 -8.8154e-41 -1.55588e-40 -4.8737e-41 1.82267e-40 -5.893e-41 -3.0148e-41 -1.9247e-41
9.177e-41 -5.3375e-41 1.08107e-40 -3.5663e-41 1.16678e-40 1.3375e-40 2.5436e-41 -1.34219e-40
-4.24e-41 1.079e-41 1.16591e-40 1.09528e-40 1.50219e-40 1.157e-42 8.9097e-41 -1.50921e-40
9.3841e-41 -6.9259e-41 -1.26148e-40 -1.3484e-40 -1.7285e-40 1.04081e-40 7.8918e-41 3.3146e-41
1.673e-41 1.19756e-40 -9.087e-42 3.4961e-41 1.97426e-40 1.44967e-40 1.21275e-40 1.08525e-40
4.2098e-41 -1.13245e-40 -1.29176e-40 3.6651e-41 -1.19651e-40 -6.8215e-41 -2.1398e-41 9.4841e-41
6.2239e-41 -5.288e-41 1.02714e-40 -5.0099e-41 -1.58907e-40 6.6179e-41 -2.629e-41 -1.16511e-40
-1.47487e-40 3.0338e-41 -1.42446e-40 -4.2717e-41 -1.56545e-40 4.3104e-41 -1.00892e-40 -1.7474e-41
-1.23749e-40 1.12146e-40 -1.51804e-40 -1.10207e-40 -1.6386e-40 -3.7532e-41 -1.83179e-40 -2.3441e-41
-1.36875e-40 5.534e-42 1.7916e-41 4.1656e-41 -8.6918e-41 -1.58481e-40 -1.03794e-40 -1.83067e-40
1.08539e-40 7.145e-41 6.1122e-41 -1.19548e-40 -2.877e-41 -8.0597e-41 1.4296e-40 1.06906e-40
-1.11157e-40 -1.22577e-40 -1.8266e-41 -8.7605e-41 -4.5318e-41 -1.06549e-40 -7.7385e-41 -1.12733e-40
7.5395e-41 8.6344e-41 -1.04627e-40 7.686e-42 1.18987e-40 1.13315e-40 4.6858e-41 7.786e-42
4.6632e-41 1.12615e-40 4.053e-42 -4.529e-42 1.08469e-40 -5.5561e-41 -2.8088e-41 -9.256e-41
-1.03668e-40 -1.3993e-41 1.30642e-40 -1.78048e-40 -1.44826e-40 -7.4514e-41 1.96864e-40 1.49542e-40
1.31771e-40 2.881e-42 1.862e-41 3.8625e-41 -1.27576e-40 -1.85221e-40 5.4721e-41 1.35742e-40
-1.27874e-40 -1.06822e-40 4.85e-42 -1.50006e-40 1.84073e-40 -9.5854e-41 8.694e-42 8.9095e-41
1.51534e-40 -1.19555e-40 -1.25565e-40 -1.5085e-41 -1.05086e-40 3.1725e-41 -1.37711e-40 -7.2102e-41
8.933e-42 1.4306e-41 -7.718e-41 1.863e-41 -1.8211e-40 9.8804e-41 -1.17317e-40 -6.7704e-41
-7.765e-41 -9.0088e-41 -6.4482e-41 -1.07711e-40 -6.9317e-41 2.725e-41 6.0536e-41 -8.5356e-41
1.32183e-40 -1.5883e-40 9.534e-42 -1.22692e-40 -1.4246e-40 4.9317e-41 -1.13364e-40 -9.2009e-41

e_conv3.point_conv.bias f4 [32]
00000000: f522 0000 4f86 0080 d621 0100 fb34 0000
00000010: dd66 0080 19c6 0180 d076 0180 037d 0180
00000020: 96a8 0080 5f5d 0080 042b 0100 6942 0080
00000030: e630 0100 dd43 0180 1153 0180 3898 0080
00000040: b48b 0000 edc1 0080 c103 0080 b7b1 0000
00000050: bb06 0280 2b65 0000 ff68 0080 303a 0100
00000060: 674c 0100 ec13 0180 5753 0080 be81 0000
00000070: 58d4 0080 fd5e 0080 ad1b 0100 0d8d 0080
1.254e-41 -4.8181e-41 1.03974e-40 1.9006e-41 -3.69e-41 -1.629e-40 -1.34457e-40 -1.36681e-40
-6.0477e-41 -3.3495e-41 1.07267e-40 -2.3823e-41 1.09377e-40 -1.1618e-40 -1.21634e-40 -5.4606e-41
5.0116e-41 -6.9567e-41 -1.347e-42 6.3752e-41 -1.86085e-40 3.6292e-41 -3.7666e-41 1.12709e-40
1.19243e-40 -9.8982e-41 -2.9897e-41 4.6543e-41 -7.6175e-41 -3.4075e-41 1.01764e-40 -5.06e-41

e_conv4.depth_conv.weight f4 [32, 1, 3, 3]
00000000: e003 0000 a695 0080 d47e 0000 ce2b 0100
00000010: 4409 0000 352b 0100 fe24 0280 b761 0100
00000020: d66d 0080 e395 0000 bc30 0000 fb46 0080
00000030: b1ae 0000 8d03 0180 fd81 0100 9711 0080
00000040: 6bc0 0000 5f20 0180 7424 0000 7b50 0180
00000050: 4d9b 0000 d453 0180 3726 0080 35b9 0080
00000060: 7a9e 0000 3b8a 0180 1493 0000 f9c3 0080
00000070: 0e96 0180 38c0 0000 b6e5 0180 7d11 0080
00000080: 95b9 0000 7023 0000 1876 0080 d897 0080
00000090: cff7 0080 700d 0080 4018 0000 beff 0000
000000a0: 7d26 0000 c03a 0080 2810 0080 5197 0180
000000b0: 2868 0000 3419 0000 1347 0180 f90e 0000
000000c0: d53a 0180 df0f 0080 167f 0000 7e8c 0080
000000d0: 8562 0080 751d 0080 669a 0100 f26f 0100
000000e0: 5f56 0080 5dd5 0000 2a3f 0000 ce54 0100
000000f0: def8 0080 821b 0100 bf37 0000 352c 0100
00000100: 6349 0100 7789 0000 62bb 0080 e80f 0100
00000110: c0dd 0000 7448 0000 d446 0080 a140 0100
00000120: 6707 0080 bbd1 0180 6321 0080 4f1b 0000
00000130: 4d94 0100 8f79 0080 a04d 0080 aa07 0100
00000140: 3139 0100 f611 0180 4f7d 0000 c1ec 0100
00000150: ea04 0080 e35d 0080 01a7 0080 428d 0100
00000160: bb1c 0280 8f42 0180 f4f9 0100 2389 0080
00000170: 485f 0100 8f33 0180 fd0b 0000 0ac6 0080
00000180: fc81 0080 0209 0100 9e4a 0080 c1c3 0180
00000190: 2370 0180 e947 0000 0e3a 0100 061c 0100
000001a0: 103f 0180 5d21 0100 af65 0080 c801 0180
000001b0: 6636 0280 c935 0100 cb0a 0280 824a 0180
000001c0: 4f54 0180 bc8c 0000 96be 0100 9f5b 0100
000001d0: a127 0080 0fc0 0180 1139 0100 b1b3 0000
000001e0: ae70 0000 f33b 0080 e841 0100 0f23 0280
000001f0: 9702 0080 f557 0000 48c1 0080 115f 0080
00000200: add6 0080 e09a 0000 874e 0080 9c1f 0100
00000210: 5e04 0080 006a 0080 cfa3 0080 434e 0000
00000220: d81c 0100 63fa 0080 0b43 0080 209c 0080
00000230: 0b05 0180 6071 0000 5a1d 0080 83c9 0000
00000240: a6c6 0080 ca58 0100 a913 0000 5ea6 0080
00000250: 08dd 0080 6f46 0180 59a2 0000 dc6f 0180
00000260: daa4 0080 00b1 0180 0123 0000 2b87 0000
00000270: da8f 0180 683d 0100 df2c 0200 049e 0000
00000280: 8697 0180 f41c 0100 a995 0000 2cbc 0180
00000290: 9f1a 0100 53c9 0080 50e0 0000 4894 0100
000002a0: 3a5f 0180 0ef6 0080 a61e 0100 c25d 0100
000002b0: 8de4 0080 4cf2 0080 c66d 0180 861f 0100
000002c0: c69b 0100 d2e2 0180 81d2 0100 69ad 0000
000002d0: 04e5 0080 3397 0000 8d0f 0000 e617 0000
000002e0: 14b3 0080 cc8f 0080 3313 0100 b6cf 0180
000002f0: 3a42 0000 c0dc 0080 b0ce 0000 ec8d 0180
00000300: fcc4 0180 b5d5 0180 1054 0080 a5ac 0180
00000310: f3a3 0080 2cab 0080 a6f1 0000 da98 0080
00000320: ac1a 0100 4631 0000 1627 0180 2cb9 0000
00000330: 6853 0080 6913 0100 377b 0000 eb0a 0000
00000340: c8d5 0080 a9cb 0000 6a7d 0100 6e21 0100
00000350: 4d4d 0100 8e01 0100 df4a 0180 a641 0180
00000360: 3d5c 0180 5a03 0200 4a8c 0080 2bef 0080
00000370: a00e 0180 8559 0100 923e 0100 2d82 0000
00000380: 3495 0080 f643 0000 bd6d 0180 df59 0180
00000390: e506 0080 fd10 0000 c10e 0180 7f05 0080
000003a0: c0c8 0100 83e4 0080 ee3a 0100 c683 0180
000003b0: a446 0100 5ce5 0080 073f 0100 35e7 0080
000003c0: fc09 0280 10e5 0080 1715 0180 b6fc 0080
000003d0: 6ba4 0080 4630 0200 7dcd 0000 dc05 0280
000003e0: 3608 0280 fca9 0000 d309 0100 9afc 0180
000003f0: 8c34 0280 88a6 0000 1f80 0100 d829 0100
1.39e-42 -5.3684e-41 4.5497e-41 1.0755e-40 3.324e-42 1.07335e-40 -1.96941e-40 1.26889e-40
-3.9402e-41 5.3769e-41 1.7483e-41 -2.5463e-41 6.2667e-41 -9.3109e-41 1.38467e-40 -6.31e-42
6.9027e-41 -1.03448e-40 1.3077e-41 -1.20706e-40 5.5711e-41 -1.21907e-40 -1.3709e-41 -6.644e-41
5.685e-41 -1.41423e-40 5.2762e-41 -7.0302e-41 -1.45665e-40 6.8955e-41 -1.7424e-40 -6.274e-42
6.6574e-41 1.2713e-41 -4.2364e-41 -5.4471e-41 -8.8897e-41 -4.82e-42 8.699e-42 9.1743e-41
1.3807e-41 -2.1076e-41 -5.796e-42 -1.46118e-40 3.7364e-41 9.041e-42 -1.17332e-40 5.371e-42
-1.1294e-40 -5.693e-42 4.559e-41 -5.0399e-41 -3.5342e-41 -1.0567e-41 1.47223e-40 1.31994e-40
-3.0984e-41 7.654e-41 2.2659e-41 1.22258e-40 -8.9277e-41 1.01703e-40 1.9998e-41 1.07694e-40
1.18162e-40 4.9313e-41 -6.722e-41 9.7542e-41 7.9549e-41 2.5991e-41 -2.5408e-41 1.1502e-40
-2.655e-42 -1.67073e-40 -1.1977e-41 9.796e-42 1.45036e-40 -4.3607e-41 -2.7847e-41 9.4585e-41
1.12352e-40 -9.8279e-41 4.4952e-41 1.76767e-40 -1.763e-42 -3.368e-41 -5.991e-41 1.42509e-40
-1.93978e-40 -1.15712e-40 1.81502e-40 -4.9195e-41 1.26016e-40 -1.10331e-40 4.3e-42 -7.1043e-41
-4.663e-41 9.5067e-41 -2.6768e-41 -1.62059e-40 -1.32063e-40 2.5797e-41 1.12662e-40 1.01888e-40
-1.14458e-40 1.03804e-40 -3.6477e-41 -9.2474e-41 -2.03185e-40 1.1113e-40 -1.87543e-40 -1.18564e-40
-1.2208e-40 5.0486e-41 1.60205e-40 1.24703e-40 -1.4216e-41 -1.60733e-40 1.12307e-40 6.4461e-41
4.0422e-41 -2.1506e-41 1.15478e-40 -1.96248e-40 -9.29e-43 3.1553e-41 -6.9336e-41 -3.4103e-41
-7.7011e-41 5.5559e-41 -2.817e-41 1.03175e-40 -1.567e-42 -3.8026e-41 -5.8763e-41 2.8075e-41
1.02183e-40 -8.9822e-41 -2.405e-41 -5.6007e-41 -9.3645e-41 4.0671e-41 -1.053e-41 7.2289e-41
-7.1262e-41 1.23687e-40 7.053e-42 -5.9681e-41 -7.9291e-41 -1.17102e-40 5.824e-41 -1.31963e-40
-5.9138e-41 -1.55331e-40 1.2557e-41 4.8489e-41 -1.4344e-40 1.13864e-40 1.99768e-40 5.6685e-41
-1.46192e-40 1.02222e-40 5.3688e-41 -1.59339e-40 1.01385e-40 -7.2222e-41 8.0468e-41 1.45029e-40
-1.25996e-40 -8.8268e-41 1.0283e-40 1.2547e-40 -8.1989e-41 -8.692e-41 -1.31215e-40 1.03144e-40
1.47716e-40 -1.73203e-40 1.6735e-40 6.2208e-41 -8.2155e-41 5.424e-41 5.579e-42 8.573e-42
-6.4241e-41 -5.1585e-41 9.8723e-41 -1.66348e-40 2.3758e-41 -7.919e-41 7.4146e-41 -1.42747e-40
-1.625e-40 -1.68499e-40 -3.0156e-41 -1.53769e-40 -5.8814e-41 -6.1405e-41 8.6687e-41 -5.4833e-41
1.01404e-40 1.7676e-41 -1.05857e-40 6.6427e-41 -2.992e-41 9.8799e-41 4.4201e-41 3.917e-42
-7.669e-41 7.306e-41 1.36826e-40 1.03828e-40 1.19566e-40 9.2393e-41 -1.18694e-40 -1.15386e-40
-1.24924e-40 1.84873e-40 -5.0326e-41 -8.5797e-41 -9.7082e-41 1.23949e-40 1.14281e-40 4.6698e-41
-5.3524e-41 2.438e-41 -1.31202e-40 -1.24075e-40 -2.473e-42 6.094e-42 -9.7128e-41 -1.972e-42
1.63851e-40 -8.1975e-41 1.12975e-40 -1.39107e-40 1.17177e-40 -8.2279e-41 1.14445e-40 -8.2941e-41
-1.87253e-40 -8.2172e-41 -9.9401e-41 -9.0656e-41 -5.8982e-41 2.00988e-40 7.3715e-41 -1.85773e-40
-1.86617e-40 6.0979e-41 9.536e-41 -1.82452e-40 -2.02521e-40 5.974e-41 1.37797e-40 1.06846e-40

e_conv4.depth_conv.bias f4 [32]
00000000: b000 0180 481f 0100 a6e2 0000 9460 0100
00000010: 070f 0180 4a24 0100 4648 0080 8a1d 0180
00000020: ada8 0080 e61d 0280 e6fe 0000 2c79 0000
00000030: 2601 0100 6c4b 0080 6ecd 0000 3e29 0280
00000040: 27fc 0000 556f 0100 1b25 0000 1c2a 0000
00000050: 5472 0180 e1b3 0000 5905 0080 2f3a 0100
00000060: 5844 0000 bba4 0100 cc47 0100 c3f0 0080
00000070: cc6b 0080 4d51 0180 a004 0100 2b72 0000
-9.2082e-41 1.03057e-40 8.1306e-41 1.26481e-40 -9.7226e-41 1.04854e-40 -2.5927e-41 -1.02432e-40
-6.051e-41 -1.94397e-40 9.144e-41 4.3468e-41 9.2247e-41 -2.7056e-41 7.3694e-41 -1.98466e-40
9.0455e-41 1.31774e-40 1.3311e-41 1.5106e-41 -1.32849e-40 6.4528e-41 -1.918e-42 1.12708e-40
2.4517e-41 1.5093e-40 1.17591e-40 -8.6369e-41 -3.867e-41 -1.21001e-40 9.3495e-41 4.0956e-41

e_conv4.point_conv.weight f4 [32, 32, 1, 1]
00000000: e7ec 0000 e948 0180 2da9 0080 5f46 0100
00000010: 28b1 0100 724a 0000 4664 0100 7c4c 0000
00000020: 3a0d 0000 272d 0180 4bdb 0000 3b7d 0080
00000030: c1cf 0000 86e1 0000 c6ea 0000 6703 0100
00000040: 3a18 0100 222c 0100 3dd9 0080 12c0 0180
00000050: d30f 0080 92a6 0080 27d9 0080 25d6 0000
00000060: b967 0000 08cf 0080 faf4 0000 d825 0100
00000070: 376c 0100 7178 0180 8e2e 0200 fc5f 0100
00000080: 3d69 0080 dda3 0100 da2e 0100 6b47 0180
00000090: c9d5 0000 7c2b 0180 4c34 0100 a508 0100
000000a0: d402 0080 3303 0080 6cbe 0100 ad02 0200
000000b0: 177a 0080 78c6 0080 8608 0080 5e7b 0000
000000c0: f952 0000 ee29 0200 9159 0100 68a3 0080
000000d0: fc1b 0180 47c0 0080 b4f2 0000 c67f 0000
000000e0: d062 0180 df70 0180 7d00 0100 85aa 0000
000000f0: 8b7c 0080 d6e6 0080 1a66 0000 a64d 0000
00000100: 9974 0080 db22 0180 9836 0080 10fa 0100
00000110: 1a06 0280 cdee 0180 0457 0080 7e36 0100
00000120: ae30 0000 3245 0100 e402 0080 c47d 0180
00000130: df85 0100 b4cb 0000 d83b 0080 1dbe 0180
00000140: 9303 0080 0fbc 0100 4db0 0000 2b6d 0100
00000150: 2685 0100 4e0d 0100 631a 0180 00b8 0100
00000160: 081f 0080 ea03 0180 2d6f 0100 f34c 0100
00000170: 9037 0100 79bd 0000 8afe 0000 0d2e 0180
00000180: 19be 0080 d910 0100 6489 0100 9b09 0180
00000190: 5231 0000 c022 0180 4d6a 0100 8bb7 0100
000001a0: 3e1d 0080 9ffd 0000 5145 0180 e851 0180
000001b0: 8613 0200 76a9 0100 d09b 0180 386d 0180
000001c0: ffba 0100 e7f3 0000 e342 0100 35fa 0100
000001d0: 9cb5 0080 a460 0180 58e9 0000 261d 0100
000001e0: d72c 0180 3ec4 0100 8d05 0100 1b39 0180
000001f0: 038c 0100 cde1 0080 c232 0100 abe9 0080
00000200: 0b33 0280 87ee 0080 8042 0100 6516 0000
00000210: 1884 0180 a931 0000 4e00 0000 f83b 0180
00000220: 940e 0100 f3e0 0080 55ee 0080 31c3 0000
00000230: ff80 0100 9062 0000 a164 0100 29ff 0000
00000240: c76b 0080 dd3f 0100 d78e 0180 0d91 0100
00000250: 11e4 0080 432b 0180 fac9 0080 a7ad 0180
00000260: 89fd 0080 53dc 0000 f0fb 0000 22ba 0180
00000270: 68d9 0000 0c73 0100 a63d 0100 9e42 0000
00000280: e635 0080 5034 0080 0e5e 0080 79c4 0000
00000290: 9e0c 0280 0eb3 0080 5bfa 0000 1d66 0180
000002a0: f3f2 0000 4db7 0000 af20 0280 d024 0100
000002b0: b484 0000 75f0 0100 9a4e 0180 3d36 0000
000002c0: 46ce 0100 b642 0000 d6ac 0080 8a2f 0200
000002d0: 77c5 0080 3f18 0280 bd75 0080 7d00 0180
000002e0: 1630 0000 a5f1 0100 26c9 0080 140b 0000
000002f0: ce6b 0180 303e 0100 ce36 0180 3541 0080
00000300: 11e8 0080 6000 0180 0715 0180 ee7b 0100
00000310: d137 0100 bde5 0080 b22b 0080 fba4 0080
00000320: 6955 0180 c175 0080 b3c9 0180 b2a1 0180
00000330: 9f02 0180 83b9 0180 7625 0100 1395 0000
00000340: 32c6 0000 e65a 0180 772c 0080 935d 0000
00000350: 2666 0180 9e18 0180 caba 0000 0be0 0000
00000360: 5538 0180 2c63 0080 f54c 0000 9142 0080
00000370: bc26 0180 480c 0280 ef69 0180 0d49 0080
00000380: c80d 0080 8830 0180 0097 0000 f0c2 0080
00000390: b98a 0000 0b0e 0200 2f4c 0180 0e2d 0180
000003a0: 1f28 0100 388a 0180 2834 0080 f683 0080
000003b0: e8bd 0100 336c 0180 8c29 0180 c164 0080
000003c0: e442 0080 f1c4 0080 a0a8 0080 fb3a 0100
000003d0: e882 0000 f82c 0280 d0ba 0000 202e 0080
000003e0: 6034 0080 4334 0180 2923 0180 645e 0180
000003f0: 6c31 0000 f206 0180 273a 0180 a415 0000
8.4985e-41 -1.17991e-40 -6.0689e-41 1.1708e-40 1.55387e-40 2.6706e-41 1.27807e-40 2.7437e-41
4.745e-42 -1.08033e-40 7.8667e-41 -4.4924e-41 7.4528e-41 8.0903e-41 8.4221e-41 9.3056e-41
1.00526e-40 1.07667e-40 -7.793e-41 -1.60737e-40 -5.677e-42 -5.9754e-41 -7.79e-41 7.682e-41
3.7209e-41 -7.4269e-41 8.7881e-41 1.05411e-40 1.30656e-40 -1.35042e-40 2.00372e-40 1.26268e-40
-3.7752e-41 1.50619e-40 1.08643e-40 -1.17455e-40 7.6692e-41 -1.07435e-40 1.10596e-40 9.4937e-41
-1.015e-42 -1.148e-42 1.60146e-40 1.84631e-40 -4.3798e-41 -7.1197e-41 -3.058e-42 4.4256e-41
2.9765e-41 1.98713e-40 1.23966e-40 -5.8619e-41 -1.01874e-40 -6.8976e-41 8.7065e-41 4.5836e-41
-1.27283e-40 -1.32326e-40 9.201e-41 6.1171e-41 -4.4678e-41 -8.2808e-41 3.6627e-41 2.7855e-41
-4.1827e-41 -1.04339e-40 -1.9585e-41 1.81541e-40 -1.8586e-40 -1.77501e-40 -3.1215e-41 1.11384e-40
1.7463e-41 1.16658e-40 -1.037e-42 -1.36952e-40 1.3986e-40 7.3075e-41 -2.1468e-41 -1.60035e-40
-1.282e-42 1.59298e-40 6.3245e-41 1.30998e-40 1.396e-40 9.6608e-41 -1.01301e-40 1.57842e-40
-1.1132e-41 -9.324e-41 1.31718e-40 1.1944e-40 1.11768e-40 6.797e-41 9.1311e-41 -1.08355e-40
-6.8194e-41 9.7879e-41 1.41122e-40 -9.5281e-41 1.7693e-41 -1.04301e-40 1.29969e-40 1.57678e-40
-1.049e-41 9.0982e-41 -1.16702e-40 -1.21218e-40 1.90675e-40 1.52627e-40 -1.4773e-40 -1.31016e-40
1.58917e-40 8.7496e-41 1.1583e-40 1.81593e-40 -6.5149e-41 -1.26504e-40 8.3708e-41 1.02292e-40
-1.07921e-40 1.62234e-40 9.3827e-41 -1.12321e-40 1.42062e-40 -8.1002e-41 1.10044e-40 -8.3824e-41
-2.01982e-40 -8.5567e-41 1.15691e-40 8.034e-42 -1.39222e-40 1.7815e-41 1.1e-43 -1.13348e-40
9.7065e-41 -8.0697e-41 -8.5497e-41 7.0021e-41 1.3811e-40 3.5358e-41 1.27934e-40 9.1534e-41
-3.8663e-41 1.14745e-40 -1.43077e-40 1.4387e-40 -8.1815e-41 -1.07355e-40 -7.2456e-41 -1.5413e-40
-9.0951e-41 7.9037e-41 9.0378e-41 -1.58607e-40 7.799e-41 1.33107e-40 1.13951e-40 2.3898e-41
-1.9335e-41 -1.8766e-41 -3.374e-41 7.0481e-41 -1.88197e-40 -6.4233e-41 8.981e-41 -1.28467e-40
8.7154e-41 6.5756e-41 -1.95396e-40 1.05041e-40 4.7605e-41 1.78095e-40 -1.20032e-40 1.9457e-41
1.65832e-40 2.3931e-41 -6.2002e-41 2.00725e-40 -7.0837e-41 -1.92369e-40 -4.2237e-41 -9.201e-41
1.725e-41 1.78521e-40 -7.2158e-41 3.974e-42 -1.30509e-40 1.14144e-40 -1.11496e-40 -2.3392e-41
-8.325e-41 -9.197e-41 -9.9379e-41 1.36293e-40 1.11859e-40 -8.2415e-41 -1.5675e-41 -5.9184e-41
-1.22475e-40 -4.2242e-41 -1.64192e-40 -1.49841e-40 -9.2776e-41 -1.58385e-40 1.05274e-40 5.3478e-41
7.1099e-41 -1.24444e-40 -1.5951e-41 3.3568e-41 -1.2848e-40 -1.00666e-40 6.7007e-41 8.0371e-41
-1.12044e-40 -3.5576e-41 2.7607e-41 -2.388e-41 -1.05731e-40 -1.88077e-40 -1.29837e-40 -2.6206e-41
-4.944e-42 -1.09245e-40 5.4169e-41 -6.993e-41 4.9764e-41 1.88709e-40 -1.19165e-40 -1.07998e-40
1.06228e-40 -1.41419e-40 -1.871e-41 -4.7339e-41 1.59961e-40 -1.3065e-40 -1.0674e-40 -3.6144e-41
-2.3996e-41 -7.0649e-41 -6.0491e-41 1.12994e-40 4.696e-41 -1.99803e-40 6.7016e-41 -1.6547e-41
-1.8789e-41 -1.10583e-40 -1.04449e-40 -1.25696e-40 1.7729e-41 -9.4327e-41 -1.12697e-40 7.763e-42

e_conv4.point_conv.bias f4 [32]
00000000: a01f 0080 d0a1 0080 f1b3 0180 1e08 0080
00000010: 3ce4 0000 b38b 0000 330c 0180 5a73 0100
00000020: 2268 0180 eddf 0080 0343 0100 073f 0100
00000030: 9717 0180 d769 0000 63a8 0000 a305 0280
00000040: b3a2 0080 defe 0180 7aa1 0000 a850 0100
00000050: 9490 0100 241c 0280 b6c9 0000 8818 0200
00000060: 6fb1 0000 0587 0080 8463 0080 6975 0000
00000070: b4f6 0100 2c5b 0000 a708 0180 2141 0000
-1.1345e-41 -5.8047e-41 -1.56386e-40 -2.912e-42 8.1875e-41 5.0115e-41 -9.6212e-41 1.33216e-40
-1.29191e-40 -8.033e-41 1.15875e-40 1.14445e-40 -1.00298e-40 3.7968e-41 6.0406e-41 -1.85693e-40
-5.8365e-41 -1.83265e-40 5.7927e-41 1.2077e-40 1.437e-40 -1.93766e-40 7.236e-41 1.92471e-40
6.3651e-41 -4.8436e-41 -3.57e-41 4.2119e-41 1.80336e-40 3.2706e-41 -9.494e-41 2.3364e-41
