Epoch9.pth (torch, 50035 bytes, 28 tensors)

e_conv1.depth_conv.weight f4 [3, 1, 3, 3]
00000000: 71db 1abd 1431 89be 3a10 bfbb f583 7b3e
00000010: 6538 d53c 2e71 9ebe 8e96 a5be 1e44 58bd
00000020: 41cd 25be dafc 4dbd b4aa de3d ed97 84be
00000030: fa99 68be fc2a 66be 7031 46be ba27 c3be
00000040: 92a3 e33c 0daa 43bc 91cd b43e f560 c43c
00000050: 3024 683e 9fd8 013d e888 35be 28b6 ebbc
00000060: 013b 38bd 0aee aabd 1959 0a3d
-0.037806932 -0.26795256 -0.005830792 0.24562056 0.026027868 -0.30945724 -0.32341427 -0.052799337
-0.1619158 -0.050289966 0.10872403 -0.2589716 -0.22714987 -0.22477335 -0.19354796 -0.38116246
0.027787957 -0.011942399 0.35313085 0.023972014 0.22670054 0.031700727 -0.17728007 -0.028773382
-0.044978146 -0.083461836 0.033776376

e_conv1.depth_conv.bias f4 [3]
00000000: e7a8 523e 2dfd dcbd 7318 153e
0.20572244 -0.10790477 0.14560108

e_conv1.point_conv.weight f4 [32, 3, 1, 1]
00000000: d61d 133c 089d 8e9f d5c2 dd3b e8d7 dc3e
00000010: 4678 4d3e 6bc2 bfbe e3cc 983d d381 1b3c
00000020: b026 66ba b210 5cb8 cd4f 9e3d 1ccd a6bd
00000030: 4904 b2b2 10e3 a41b 3194 9ca3 af3e e53d
00000040: fbba 98be 938a 1f3d 6b5e 86bd d234 9abc
00000050: 5198 aa3b 6756 bd39 583e ee3d 6277 802f
00000060: 7f2b a03e df88 6d3e bbb8 fabe 02f1 023f
00000070: f0da b83e e9a6 7abe b041 803d 59aa 9dbc
00000080: 0379 e2b9 1f11 e4bd ce42 093f 7d79 e1be
00000090: 6eb8 993e d020 e33d dd4b 5d3e 2383 643d
000000a0: 60f8 e33c 6332 583e 9073 963e e4ce 6abe
000000b0: 9e0f 7a3e 48c6 09b9 38b1 c6b6 c20f 3129
000000c0: 441e 0f3e 9e89 e02a ca2c d33c 62ec e33e
000000d0: a671 c33e 68cb 1a3e 1413 d5be a1d4 d7be
000000e0: ce54 693e c70f 98bd 1f62 74bc 1a62 0e3e
000000f0: a147 7e37 69dc 6d3b b2cc 6a2f 8c7d 9e3d
00000100: f190 0f3d b8a6 43bd 1ffd 44be efec a3bd
00000110: bf1d 7f3d c3a2 953d 43d3 b6be 8ce5 b83c
00000120: b0ff bcbe 2936 9dbe 93cd 0f3e e030 f53e
00000130: 6f2d cebe a268 0cbe 83ab 783e cc2d 093f
00000140: 4b0f 2cbe 94a1 95be bb60 c5be 3d78 d43e
00000150: 998e e93e 4630 9c3e 0ca0 ed3d 448d 0000
00000160: 9741 858a aa7e 80af 10c1 6a37 08fe e2bc
00000170: 5b9d afbc a312 2ebe 82fa 1dbd 08ae 97bd
0.008979281 -6.0399126e-20 0.0067676106 0.43133473 0.20065412 -0.37453017 0.07460954 0.009491402
-0.00087795686 -5.2467636e-05 0.077300645 -0.0814459 -2.0723876e-08 2.727826e-22 -1.6976315e-17 0.111935966
-0.29830155 0.038950514 -0.065609775 -0.018824015 0.005206146 0.00036113264 0.11632985 2.336789e-10
0.31283185 0.23196743 -0.48969063 0.51149 0.36104536 -0.24477734 0.06262529 -0.019246267
-0.0004319624 -0.11136078 0.5361756 -0.44038 0.3002352 0.11090243 0.21610971 0.055789124
0.027828395 0.21112971 0.29385042 -0.22930485 0.2442002 -0.00013139204 -5.921491e-06 3.9315563e-14
0.13976389 3.9885884e-13 0.025778193 0.44516283 0.38172644 0.15116656 -0.41616118 -0.4215441
0.22786257 -0.07424884 -0.014915972 0.1390461 1.5156257e-05 0.0036294705 2.1354898e-10 0.0773879
0.035050336 -0.047766417 -0.19237183 -0.08004176 0.062284227 0.07306435 -0.35708055 0.022570394
-0.36913824 -0.30705383 0.14043264 0.4788885 -0.40269038 -0.13711789 0.24284177 0.53585505
-0.16802709 -0.29224837 -0.38550362 0.41497985 0.45616606 0.3050558 0.11602792 5.0677e-41
-1.2832106e-32 -2.3373065e-10 1.3992438e-05 -0.027709022 -0.021437338 -0.16999297 -0.03856898 -0.07406241

e_conv1.point_conv.bias f4 [32]
00000000: 4f5b 17be 66b3 c63d b1f6 e6bc eaa3 0080
00000010: 2c40 1abe 7c5a 913e 7699 01bd fe42 b3ba
00000020: fc7a d83e 3839 df3e 2f00 9cbc a0ce ec3e
00000030: dcf5 e43e e660 7e3e dd52 813e 834f d7bc
00000040: 6eab 08be 154d c43e d03c 293e d1e4 84bd
00000050: 6a64 21b8 cd10 2e3e f42a bebc ecd6 a2bd
00000060: fab6 83bd 0e55 a93e b0ab 843e f58c 083f
00000070: 4d65 913e 8c23 44bc dc35 b1bd 0521 c53e
-0.14780925 0.09702186 -0.028193804 -5.8801e-41 -0.15063542 0.28389347 -0.031640492 -0.0013676581
0.4228133 0.43598342 -0.019043056 0.46251392 0.44718826 0.24841651 0.25258532 -0.026283031
-0.13346645 0.3834006 0.16527104 -0.06488956 -3.847891e-05 0.16998596 -0.023213841 -0.07951149
-0.064313844 0.33072704 0.25912237 0.53340083 0.283976 -0.011971366 -0.08652851 0.38501754

e_conv2.depth_conv.weight f4 [32, 1, 3, 3]
00000000: 531f 0080 fd3b 8139 8ca5 ddbb 427f 1035
00000010: b679 0000 b22e f3bb 6cfb dd32 3a65 f7b7
00000020: 0345 e89f f5fd 40bd 4f1b ccbc 0a56 84be
00000030: b926 4fbd 5dae dcbd 0918 cebd edbe 28be
00000040: d56f 58be 0906 71be c573 0080 bf2d c13b
00000050: d5c5 a5b5 fe80 911d 9cbf 863a 3a55 56ba
00000060: e1c9 73bb 2804 aa39 0e10 0000 ceed 8f9a
00000070: e8d9 8b30 8901 0080 1429 7bba f9da 4fb4
00000080: c06e 991f a785 1abb 4d63 733a a46b 22a5
00000090: 1c56 4bbb 4ced c5a7 60cb 1132 34af 0000
000000a0: 7666 1827 efea 393a 3052 993b bfea 403a
000000b0: 1c28 39ba 9d2e 9dbd f7b7 51bd 4ca7 543e
000000c0: 24a9 593e 2fd4 13bc a978 4f3e d970 5ebd
000000d0: f5e5 953e 6aa2 d6bd 1188 6abc 8053 5bbc
000000e0: 9870 65bc a955 673b ae1f 4b3a 83b1 dbbb
000000f0: e211 27bb 66c4 a8bb de7d 88bc 9672 0080
00000100: 0972 b23a f94a 0000 68be 77b9 cd26 d105
00000110: fda9 432f 1a50 12bc 5c0b 1934 23de a73b
00000120: cffc d3be 6c3a a23c 66e2 edbd e99b b9be
00000130: 7661 62be 80c7 cc3b 8093 30be e51c ddbd
00000140: c39b 423d 173f 8b3e b137 58be 0da4 d03e
00000150: e10d 923c d258 7b3e 3b17 0bbe 6c23 62be
00000160: 6961 963e 8c47 ca3e f02d 2ebb dab5 6436
00000170: ea43 21b6 3370 35b7 56de afb5 8c1d 1536
00000180: 6d33 4d38 e975 ef36 76c8 7837 b5f5 ce3e
00000190: a395 a23e 2a6b 41bd ca24 923e ab88 8a3d
000001a0: 1d46 3c3d 7de6 be3d c8b4 f83d 507d 9fbd
000001b0: f81d a63d 668f 53bb a974 543e 07bf 263e
000001c0: 459a 13bd 691f 68be 4097 00bd 914c 9fbe
000001d0: 1560 5abe dda2 453c 7455 c9bd 98cf c3bd
000001e0: c37f 15be 8122 3aba 7ad0 1a3e 3771 e7bd
000001f0: 01bf d23d 38ad 183d d78b 6fbe 1673 df3d
00000200: 9e54 0d3d 1b23 70be 27d2 52be f8a2 b33d
00000210: 6da8 13be 06d1 68be 9c3b 093d 7df0 ff3a
00000220: 667d 0100 a9ac 0ba2 b046 e5b9 a336 c6bb
00000230: 61bd a0b7 1b89 0036 5bf9 3a3c f8da 91b9
00000240: 0b67 1781 8bce 75bb ccf3 353c 9b53 b7b3
00000250: 1064 85ba 1c6d 6636 4aa3 deba eda8 33bb
00000260: 58af 7cbb dce7 923e 92ed 483a 97fc 12be
00000270: 877e d0bc ab3b 5d3e 676a 06be ca2c dd3e
00000280: 8b8a 243c b6f8 dc3e eceb 5fbe aa0b 0f3e
00000290: e0be 8dbe 78c8 eebd 1a29 1abe acf9 a43d
000002a0: 9577 a8be 1b57 313e a340 88be 7976 113c
000002b0: c222 a13a e2d8 4fbb d8a5 4e3c 5734 d5bb
000002c0: a826 c5bb 88f3 eeba 7c3d 30bc cb27 7bbc
000002d0: 4ca0 1c22 c606 0080 fe3f 059e c998 e3b8
000002e0: 5947 0000 8d78 adbb 9fd5 2f88 72aa 6cbb
000002f0: 6a9c 1aba 65c8 46ba 21e5 053d 762e 77bc
00000300: 1d05 4d3d ffe9 7e3d c8fa 913c 1c14 9e3d
00000310: 99c7 1f3d 01b0 ebbb 1b4d b93a 1647 a3bb
00000320: 9a9b 6b3c db72 5ebc f30b 3ebc 7e33 49bb
00000330: 31dd 4b3c d1b6 153c 7f3b 033d c644 04be
00000340: 27de 25bc 5a38 bf3d de65 99bd d07a 803d
00000350: 44f2 3d3e 2bbf 7bbe 456b ecbd e703 76bd
00000360: dbe9 3ebc 0149 f8b9 d017 413e 6547 35bd
00000370: 11cf 163c 2904 473e 7b08 94be 99fc 59be
00000380: e72d f13b 2720 293e 57ec a23e 1c10 003e
00000390: e471 debd 5d8d 843e ab23 3d3c 48dd a23e
000003a0: c6c9 b93c 16cb a3bd 7514 993e b82f ba3e
000003b0: 60b7 af3e b3f2 cc3e d384 423e 2ee4 633e
000003c0: ac9e c53e 55e0 743e 67c7 f03d 4b1b a2bb
000003d0: cd5a 6ebc 9709 a9be e62c 05be e20a 8fbe
000003e0: ea4e 2c3e 3985 18be be0f 2e3e 75ba b2be
000003f0: 2e12 7c3e c5e6 c53d 62ed b53d 43da 27be
-1.1237e-41 0.00024649492 -0.0067641195 5.3829365e-07 4.3662e-41 -0.007421338 2.584212e-08 -2.9491832e-05
-9.836999e-20 -0.047117192 -0.024915366 -0.25846893 -0.05057404 -0.10775445 -0.10063178 -0.16479082
-0.2113641 -0.23537458 -4.153e-41 0.005895346 -1.2351035e-06 3.8514555e-21 0.0010280493 -0.0008176152
-0.0037199187 0.00032428023 5.76e-42 -5.952761e-23 1.0175514e-09 -5.51e-43 -0.0009581011 -1.9358039e-07
6.498124e-20 -0.0023578198 0.00092845113 -1.408773e-16 -0.0031026667 -5.493576e-15 8.486353e-09 6.2851e-41
2.1149782e-15 0.0007092198 0.004678987 0.00073591986 -0.00070631667 -0.076749064 -0.051200833 0.20766944
0.21255928 -0.0090227565 0.20260872 -0.05430684 0.29277006 -0.10480197 -0.014314667 -0.013386607
-0.014003895 0.003529886 0.0007748556 -0.0067045107 -0.0025492837 -0.0051503656 -0.01666158 -4.1106e-41
0.0013614307 2.6895e-41 -0.00023626687 1.9668519e-35 1.7795539e-10 -0.0089302305 1.4253368e-07 0.0051229163
-0.41403815 0.019803248 -0.11615448 -0.36251763 -0.22107491 0.006249368 -0.17243767 -0.10796527
0.047511827 0.2719657 -0.21114995 0.4075016 0.017828884 0.24545601 -0.1358308 -0.22083825
0.29371193 0.3950771 -0.0026577674 3.40805e-06 -2.40304e-06 -1.0814564e-05 -1.3103224e-06 2.2219929e-06
4.8923703e-05 7.1364816e-06 1.4828625e-05 0.40421835 0.3175479 -0.04722134 0.28543693 0.067643486
0.045965303 0.09321306 0.12143856 -0.07787573 0.08111185 -0.0032281517 0.20747627 0.16283809
-0.036035795 -0.22668232 -0.031394243 -0.31113103 -0.21325715 0.012062755 -0.09830752 -0.0956108
-0.14599518 -0.00071004784 0.1511859 -0.11300891 0.10290337 0.03727457 -0.23393188 0.10910623
0.034504525 -0.23450892 -0.2058798 0.08771318 -0.14419718 -0.22735986 0.033504114 0.0019526627
1.3682e-40 -1.8929418e-18 -0.0004373095 -0.0060489937 -1.9161673e-05 1.9153292e-06 0.01141199 -0.000278197
-2.780825e-38 -0.0037507142 0.011105489 -8.536809e-08 -0.0010176916 3.433618e-06 -0.001698592 -0.002741392
-0.0038556661 0.2869252 0.0007664795 -0.14354168 -0.025450958 0.21604793 -0.13126527 0.43198234
0.010042797 0.431585 -0.21867341 0.13969293 -0.2768469 -0.1165933 -0.15054742 0.08055434
-0.32903734 0.17318384 -0.26611814 0.008878344 0.0012293684 -0.0031714966 0.012612782 -0.0065064835
-0.006016571 -0.0018230537 -0.0107568465 -0.015329312 2.1226803e-18 -2.43e-42 -7.054195e-21 -0.00010852662
2.5595e-41 -0.005293912 -5.2913257e-34 -0.0036112336 -0.00058979413 -0.00075829617 0.032689217 -0.015086761
0.050053705 0.062234875 0.017819777 0.07718679 0.03900871 -0.007192612 0.0014137359 -0.0049828393
0.01438036 -0.013577188 -0.011599529 -0.0030700858 0.012442873 0.009137825 0.03203916 -0.1291686
-0.010123766 0.0933692 -0.07490133 0.062734246 0.18549448 -0.24584644 -0.115438975 -0.060062315
-0.011652435 -0.00047356638 0.1885674 -0.04425754 0.009204642 0.1943518 -0.2891272 -0.21287765
0.0073602083 0.16516171 0.31820938 0.12506145 -0.10861567 0.25889102 0.011544148 0.3180945
0.02267922 -0.0799772 0.2989842 0.36364532 0.34319592 0.40028915 0.18995981 0.22255012
0.3859762 0.23913701 0.11756783 -0.004947101 -0.014548016 -0.3301513 -0.13005409 -0.2793799
0.16826978 -0.1489457 0.16998193 -0.3490788 0.2461631 0.096631564 0.08883168 -0.16391854

e_conv2.depth_conv.bias f4 [32]
00000000: 42b0 2c3e 6010 ddbd 9932 423e 5cb7 c9bd
00000010: 40ee 533e 9eb3 093e dd5c 983d 0aa6 3bbd
00000020: 5b34 23be 1caa 8cbe 8397 583e 67a3 2d3e
00000030: d628 8c3d f93e 15be 4eeb f03a 1259 01be
00000040: d675 06be c49f 973e 2e5e bfbd 08bd c6bd
00000050: 6d02 85be ec72 113e 7f7a 493e ddc8 bebd
00000060: 89d7 6b3e 7de0 01be 4868 85bd aa98 8c3d
00000070: eef9 623e 8407 3a3e 6758 863e cd3b 56be
0.16864112 -0.10794139 0.18964614 -0.09849426 0.20696354 0.13447425 0.07439587 -0.045812644
-0.15937941 -0.27473533 0.21151547 0.16956864 0.06843726 -0.14574803 0.0018380673 -0.12631634
-0.13130888 0.2961408 -0.09344135 -0.097040236 -0.25978413 0.14203995 0.19675635 -0.093156554
0.23031439 -0.12683292 -0.06514031 0.06865056 0.22165653 0.1816693 0.2623932 -0.2092125

e_conv2.point_conv.weight f4 [32, 32, 1, 1]
00000000: 3694 823d e48a b03d a367 ffbb acc1 50bd
00000010: a975 1dbd e7db 4a3c 24d2 f33c dd20 963c
00000020: a7a4 9abc 3cc8 71bd bab4 2dbd 1518 153d
00000030: 5950 553c 1992 083d a0b7 a73c e3ab 3cbc
00000040: d214 79bd 6b89 42bd 2aef 2cbd 474b 18bc
00000050: 56b8 59bc 661f 3b3b dada 2e3c 0fa2 b5bd
00000060: 59c4 8abd b4a5 ce3b d587 873c c826 d6bd
00000070: 2a71 f8bb 427f 2ebc 698c 06bd d4c1 43bd
00000080: d079 0238 356e 27bb 966e 3338 7e3e 34b8
00000090: 3aa8 3c38 3879 2a3b 5530 3038 2a2d e3b6
000000a0: aa7c 0bbb d810 483c 43ce 0738 1dc0 fc39
000000b0: 1a17 07bb dd29 7e39 4e58 adbb 335f 4ab8
000000c0: ffc4 44b8 4641 c9bb 4538 10bb 5a2a 39b8
000000d0: 477e 22b8 ea04 dab6 d10e 03b9 bb14 93bb
000000e0: 6adb 58bc 87be 0d3c 46f8 c73b ab51 623b
000000f0: 8dce c63b a0b9 fe37 3ce6 1e38 59fc 16bb
00000100: 1827 c43d 8a5a 2bbd 8478 f7bd 8d15 d7b9
00000110: 48bf cabd 6beb 4bbd 5552 0d3e 6c66 d2bd
00000120: 5b46 a9bd bbdc 7d3e 7153 da3d 641f e2bc
00000130: 9027 71be 8480 ddbd b5cd 08be 077c af3c
00000140: d64d c6bc 165b 4b3e 22b7 0e3e 4373 db3d
00000150: 3ef8 943a afc9 353d 0732 f13d 90ee c23d
00000160: a9e9 363e 4d3b 0ebe 9f76 7f3e 3526 583c
00000170: d333 a13d 0bdb 4abc 3b81 3a3d 909b c1bd
00000180: ab24 f23c e75e 12be 662f 173d cb79 ffbc
00000190: 3106 1c3d ea0c 8dbc e5a0 6b3c 26c9 98bc
000001a0: f319 31be dc80 453e 62c3 123d a1b8 593e
000001b0: 3349 26be 38e6 8c3c b2f4 9e3d ac2e 13bd
000001c0: 97ea fcbc 1749 723e df29 fd3d 7ee2 68bc
000001d0: 8446 89bc a408 683b 8dd9 8e3d 2280 b13d
000001e0: 12e0 6dbd 080c 25bd b30a 953e 9280 d03d
000001f0: 1c42 183e c35e 593d e784 803d 456d 54bc
00000200: 4acd dabc 39fa 1b3e 3fd0 c83d 74a6 82bd
00000210: 9fa4 0dbd 1e18 1fbd 7ed1 b33c 107b 063c
00000220: 40c5 863d cb79 6cbe 1b55 58bd cc68 c9bd
00000230: 616c 283d c890 7fbc 9d2b 9bbd 47ff 6c3d
00000240: dbe3 873c 4b4b 243d 3c3f 3dbd 25f2 083d
00000250: 3f97 f9bc 027b a73d 8c72 0bbd 7925 b4bd
00000260: daee ad3d 3528 643d bc8c 2ebe 1eaa 0ebe
00000270: 395b 0cbe d8b3 d73d 1554 3b3c e6da a4bc
00000280: 824f 3d3d 1b4c 933c 7e65 a63d 23fe dfbc
00000290: 7f9c d23b e5f2 213c 1511 33bb 0004 69bc
000002a0: e2cb 56be 4e57 b9bd 3863 e73c ea42 403e
000002b0: 9eee 1a3d aa24 2dbd 2c50 4a3d dcee 7dbd
000002c0: 0299 06bd 1a66 593e 7a30 b43d 2bea cabc
000002d0: d868 e4bc 2d5e fe3c 9569 08bd 150e 973d
000002e0: 711d bb3d 43f7 413d e594 273e c4af 863d
000002f0: b01b 513d 3363 eebc 9739 ad3d bc7f 38bd
00000300: 7ea6 0080 dec9 7035 456f 0000 4270 1991
00000310: d27f 0000 55c7 b4a8 0941 0000 99b5 ab32
00000320: da1d 0100 49a8 8eb4 e0b9 a2b0 a39e 0000
00000330: 95aa 0080 3dbf 832f a7ff d72b 0362 0080
00000340: 9f33 bfaa 38c8 0080 ebab 0000 3e22 d4ae
00000350: ebf2 b532 e3fa 06b4 1441 2a34 b9c3 43b3
00000360: 59de 6ead e7c8 d72e 0349 0080 d50d 8526
00000370: 8f05 cfa5 cb5b 9933 bbff 20b1 d2fd 0080
00000380: 9c4b 0f3d 7e93 2bbd e091 da3b 9352 9ebc
00000390: c24e 5b3d 2d60 cebc 884a f4bc c722 acbc
000003a0: 6f3c 49bd f309 b63d f20b 41bc 7975 b33d
000003b0: f8d6 e33c aafe 363d 931d ecbb acb0 d2bc
000003c0: 9a50 f0bc 2496 403e 480d 553d 1112 c5bc
000003d0: 4435 51bd 09f5 873c dc82 67bc 0fd6 c23c
000003e0: 1390 7b3d 9e56 153e 6c4f 6b3e f6d5 fe3d
000003f0: f77e 023e ec39 88bc 99e0 503b ad2f 54bc
0.06375925 0.08620241 -0.007794337 -0.05096595 -0.038442288 0.01238153 0.029763289 0.018326217
-0.01887734 -0.05902885 -0.042408682 0.03639992 0.013019645 0.033342455 0.020473301 -0.01151559
-0.06081087 -0.047494333 -0.042220272 -0.009295291 -0.013288578 0.002855265 0.0106722955 -0.08868801
-0.067757316 0.0063063744 0.016544262 -0.10456616 -0.0075818496 -0.010650458 -0.03284875 -0.04779227
3.1107862e-05 -0.0025547866 4.2779917e-05 -4.2973545e-05 4.4979366e-05 0.0026012193 4.2006683e-05 -6.770385e-06
-0.0021284022 0.012211047 3.2378604e-05 0.0004820832 -0.0020613135 0.00024238923 -0.0052900678 -4.8249214e-05
-4.691351e-05 -0.0061418144 -0.0022006196 -4.414688e-05 -3.8741415e-05 -6.4974784e-06 -0.00012498653 -0.0044885552
-0.013235906 0.008651382 0.0061025945 0.0034533541 0.0060671032 3.0365598e-05 3.7884558e-05 -0.0023038595
0.09577769 -0.04183439 -0.120835334 -0.00041024052 -0.09899765 -0.04978506 0.13800938 -0.10273442
-0.08265372 0.24791233 0.106604464 -0.027602859 -0.23550248 -0.10815528 -0.13359721 0.021421446
-0.024207037 0.19858965 0.13937047 0.10715344 0.0011365486 0.044381794 0.1177712 0.095181584
0.17862572 -0.13889809 0.24947594 0.013192703 0.07871213 -0.0123813255 0.0455334 -0.09453499
0.0295585 -0.14294015 0.036910437 -0.031186005 0.038091842 -0.017218072 0.014381622 -0.018650603
-0.17295055 0.19287437 0.035830863 0.21261837 -0.16238861 0.01719962 0.07761516 -0.03593318
-0.03087358 0.23660694 0.12361502 -0.014214156 -0.016757257 0.003540554 0.06975088 0.086670175
-0.05807502 -0.040294677 0.29109725 0.10180773 0.14868969 0.053068887 0.06275349 -0.012965505
-0.026709218 0.15232171 0.09805345 -0.06379405 -0.034580823 -0.03884136 0.02195048 0.008208051
0.06580591 -0.23093335 -0.052815538 -0.098344415 0.041118983 -0.015598483 -0.07576678 0.05786064
0.016588142 0.040110867 -0.046202883 0.033434052 -0.030467628 0.08177759 -0.034044787 -0.0879621
0.08492823 0.055702407 -0.17045873 -0.13932082 -0.13706674 0.10532349 0.011433621 -0.02012391
0.046218403 0.017980626 0.08124827 -0.027342862 0.006427347 0.009884571 -0.0027323414 -0.014222145
-0.20976213 -0.09049855 0.028245553 0.18775526 0.03782522 -0.042271294 0.049392864 -0.061995372
-0.032860763 0.21230355 0.08798309 -0.024769863 -0.027882025 0.031050766 -0.033303816 0.07375733
0.09136475 0.047354948 0.16365393 0.065764934 0.051051795 -0.029100036 0.0845825 -0.045043692
-5.9726e-41 8.970072e-07 3.9916e-41 -1.2104164e-28 4.5853e-41 -2.0070461e-14 2.333e-41 1.9989601e-08
1.02544e-40 -2.6572005e-07 -1.183988e-09 5.6908e-41 -6.1193e-41 2.3964644e-10 1.5347627e-12 -3.516e-41
-3.3964235e-13 -7.1825e-41 6.1673e-41 -9.6467265e-11 2.118164e-08 -1.2570995e-07 1.5856159e-07 -4.5579984e-08
-1.3578105e-11 9.8127555e-11 -2.6192e-41 9.232478e-16 -3.5912543e-16 7.141315e-08 -2.342843e-09 -9.1054e-41
0.034984216 -0.041888706 0.0066702217 -0.019326484 0.053541906 -0.025192345 -0.029820696 -0.021012677
-0.0491299 0.088886164 -0.011782633 0.087626405 0.027812466 0.04467646 -0.007205674 -0.02571901
-0.029335309 0.18807274 0.05201462 -0.024056466 -0.05107619 0.016596334 -0.01413032 0.023783712
0.061416697 0.14583823 0.22979516 0.124431536 0.12743746 -0.016629182 0.0031872152 -0.01295082

e_conv2.point_conv.bias f4 [32]
00000000: 1472 433c 8932 ba3a 1a68 443d 49ef 1d3e
00000010: c156 293e 4719 bfbd e9a9 a0b4 ab80 ae3c
00000020: 9d16 d63d df2d 1f3e 9cf9 b3bc 83b0 1fb4
00000030: 3b1e 27b7 cdf7 5bb4 cb6c 4e3d 4309 67bd
00000040: 9763 653d c8ae 75b9 0657 e13a 3a99 2fbc
00000050: 8a14 373e 5d98 bf3d 7944 31b2 b01f 263d
00000060: 166c 3b3d 6154 f7bd 4ebb 203d 0997 0f3e
00000070: ea2e 34b5 79b0 9e3a 1982 1fbc 4c40 4e3d
0.011929054 0.0014205734 0.04795084 0.15423311 0.16537 -0.09330993 -2.9925948e-07 0.021301588
0.10453532 0.15544842 -0.021969609 -1.4872244e-07 -9.961014e-06 -2.0486114e-07 0.05039672 -0.056405317
0.05600318 -0.00023430132 0.0017192073 -0.010717684 0.17878929 0.09355233 -1.0318325e-08 0.040557563
0.045757376 -0.12076641 0.039241128 0.14022459 -6.7123494e-07 0.0012107036 -0.009735608 0.050354287

e_conv3.depth_conv.weight f4 [32, 1, 3, 3]
00000000: 2e35 0d35 4ce2 2b3c 7e0c 21bb 06fd 0535
00000010: 0186 57bc 922e 07b5 bd51 0435 42d8 8d3b
00000020: d964 1fb4 03bb 10b5 8552 0a3b b079 f137
00000030: fe85 3d3b e8e8 92b0 59f7 b138 ff3d 5db0
00000040: 41a3 fbbb 2a29 0cbc c2f3 9bbb 8544 55b8
00000050: ed52 b13a e5b7 9abb c951 6f3b 49fb 8635
00000060: 3196 74b4 45c8 3b35 dd83 4637 293c a7ba
00000070: 8181 31b9 5426 ae36 cfc6 b439 eec5 8c35
00000080: d119 a13b 0432 0eb5 c1d5 6f3b e06c af36
00000090: e6f3 b2b5 fec9 72b5 f81b 1ab3 4a8a afbb
000000a0: d9b1 5cb5 2238 29b7 79da bdb8 bee8 8333
000000b0: 15ca 9635 c814 c5b4 c29f c0b3 b2f8 4834
000000c0: fa02 b6b4 692f 3832 b689 8d3b 2487 6d39
000000d0: 45e2 b138 2a4a e434 892a ec09 b85c 18ba
000000e0: d5d8 0000 086f 8bbb 7cd6 172f 2da8 16ba
000000f0: 3d5e 9ea6 6923 113c 8149 90b9 c661 8bb4
00000100: 9a23 96b3 d7fd c6b8 97b0 9fb9 24cf 033a
00000110: 3062 c033 3644 4fba 7f22 6b32 9a3b 1d3a
00000120: 9b07 5dbb a767 8336 a0d9 3fb5 d6db 1238
00000130: 1918 f5b4 e283 45b5 768a 68b4 8b6a 0bbc
00000140: 9e23 6bbb 3ee9 9ab4 b18d 24b7 ba3e 0ab4
00000150: ee88 b5bb bd72 7a35 87a7 34b5 f8a2 77b4
00000160: ff0a f938 b7ca 23bb 5ad4 d9b3 0350 68ba
00000170: 1dcf ddbb 236e 4eb9 ab03 cf33 6dc0 b9bb
00000180: 6644 fc36 f5fb af3a 4f64 1c37 4791 209e
00000190: f01b 3a9d 9960 481d ee57 693b daa1 06af
000001a0: fa87 0bba bd4c 5f1e 5849 9e3a 3d09 199d
000001b0: 8c04 8db9 2c87 452b 252f bd39 3147 0000
000001c0: 636e 0000 8cc1 0000 b7a6 a4b7 218c 29b1
000001d0: 13de 9c3b c694 d639 ba65 a53b f9d4 d139
000001e0: 967a 529d 5531 48bb ca6d b123 9373 7d2d
000001f0: 30ef aa22 1d8e ae25 597f f139 aee9 7439
00000200: 3a8b d0b4 e6fc 99b4 6181 97b4 3519 b93a
00000210: a05f 17bc 702b d6b6 5be6 0037 8a14 4eb6
00000220: 16c4 da39 48a3 a833 d7d1 19bc c035 02b5
00000230: 0df5 a5bb 29de 6338 b5e9 c5b4 3c9f fe34
00000240: bf14 8bb6 87b9 dc34 24ea 04b9 03b0 8035
00000250: 7528 a6b2 bc9d f63a 074e ed33 5fd5 09bc
00000260: dc89 f6b5 a8a5 bcba ab45 fb2a ad17 01b9
00000270: e3fd 973b a95d 7b2b 31a2 a5b4 5075 fa33
00000280: 3ded 162b 8de2 8fac 25ff f429 7128 472a
00000290: 9602 e73b 3a7d 20bc e8c3 dfac d19f 7eaa
000002a0: 1213 d2aa 92c4 bcbb 94fe 073b ea99 a235
000002b0: e8aa cd30 e848 e4b0 7533 2b3a 8bb0 3cb1
000002c0: e3bf 98b1 e396 53b0 f210 22b1 88be d638
000002d0: b2bd 4837 351c d83b 8522 d6ba 3a6f 4a3c
000002e0: 94eb c339 4baf d9b5 9162 cb36 88f1 5935
000002f0: 6c98 81b6 004d 2c3b 059a 8bb7 1201 2033
00000300: 0a21 f7b6 a981 a9b3 d719 dab2 69af 14b4
00000310: 7ae2 ce3a 14b7 3b34 57a2 ad2d f63a b319
00000320: 711c 27ba f646 9b8e fa69 94ba 7007 b4bb
00000330: 500f 3e3c 6e2f 65b3 961d 3391 6d3d 4dba
00000340: 4cfd f9b3 f245 adb4 5789 5c3c 51de 0eb4
00000350: 6730 45bc 9286 8db3 fd77 afb7 004e 0338
00000360: 2e21 8b32 0cb9 a131 faa6 7aaf b7bb 1a39
00000370: c428 8339 6303 5cb8 ec87 98b7 53b3 09ba
00000380: ae28 0536 d2e3 c3bb 5928 9db5 e5b9 a0b5
00000390: 08a6 c2b5 4b93 97b5 1a35 a0b5 e383 9bb5
000003a0: 5cd8 55ba 7ed6 91b5 7ed3 e538 913d 3cb4
000003b0: 6661 ba38 f61a 47bc 2dae 98b2 0537 7b34
000003c0: 00d0 54b4 da6a 1e37 8d6f 88b9 cf7f da32
000003d0: abd2 6233 d67c 0634 3504 b239 ee8c a333
000003e0: 60b6 1e34 76e0 033c dadc d333 a474 4334
000003f0: 565f 3433 8fc3 121a 6335 e32e 0c0f 9db9
5.260398e-07 0.010490965 -0.0024574096 4.991456e-07 -0.013154508 -5.035919e-07 4.9292777e-07 0.0043287585
-1.4844717e-07 -5.391632e-07 0.0021106314 2.8786104e-05 0.0028918977 -1.0689094e-09 8.48609e-05 -8.0487433e-10
-0.0076793735 -0.008554736 -0.004759283 -5.084697e-05 0.0013528742 -0.004721629 0.0036517254 1.0056912e-06
-2.277891e-07 6.995436e-07 1.18324215e-05 -0.0012759018 -0.0001692828 5.190066e-06 0.000344804 1.0488418e-06
0.0049164076 -5.2971905e-07 0.0036595913 5.228081e-06 -1.3333017e-06 -9.044596e-07 -3.5881357e-08 -0.0053570615
-8.221519e-07 -1.0086254e-05 -9.052916e-05 6.1424984e-08 1.1234685e-06 -3.670923e-07 -8.9697565e-08 1.8716926e-07
-3.3902307e-07 1.0720989e-08 0.004319395 0.00022652425 8.482164e-05 4.252227e-07 5.6854933e-33 -0.0005812156
7.7785e-41 -0.0042551793 1.380957e-10 -0.0005747106 -1.0988996e-15 0.00885854 -0.00027520585 -2.5961907e-07
-6.991395e-08 -9.488657e-05 -0.00030458413 0.000502812 8.958557e-08 -0.00079065876 1.3686644e-08 0.0005997956
-0.0033726457 3.916171e-06 -7.146973e-07 3.501385e-05 -4.565234e-07 -7.3580134e-07 -2.1657056e-07 -0.008509289
-0.0035879384 -2.885444e-07 -9.808152e-06 -1.2875071e-07 -0.005540005 9.3299224e-07 -6.729901e-07 -2.3062955e-07
0.000118752934 -0.0024992654 -1.01434765e-07 -0.00088620203 -0.0067690746 -0.0001968672 9.639856e-08 -0.005668691
7.518148e-06 0.001342653 9.3216795e-06 -8.500372e-21 -2.4631338e-21 2.651972e-21 0.0035605389 -1.224473e-10
-0.0005322691 1.1821391e-20 0.0012076302 -2.0254157e-21 -0.00026897003 7.017605e-13 0.00036084015 2.5539e-41
3.9599e-41 6.9432e-41 -1.9627956e-05 -2.467239e-09 0.0047872155 0.00040928106 0.005047527 0.00040022263
-2.7856644e-21 -0.0030546982 1.9236876e-17 1.4407048e-11 4.633184e-18 3.0280488e-16 0.00046061983 0.00023356706
-3.884432e-07 -2.868248e-07 -2.8220077e-07 0.0014121892 -0.009239107 -6.382754e-06 7.683028e-06 -3.0708347e-06
0.00041726296 7.85281e-08 -0.009388409 -4.850699e-07 -0.0050646127 5.432792e-05 -3.6864154e-07 4.7427045e-07
-4.144938e-06 4.1113182e-07 -0.00012675725 9.587969e-07 -1.9343341e-08 0.0018815319 1.10503656e-07 -0.008412688
-1.8368551e-06 -0.0014392631 4.4634899e-13 -0.00012311219 0.00463842 8.9303093e-13 -3.0851655e-07 1.1662871e-07
5.361994e-13 -4.0894566e-12 1.0880037e-13 1.7688781e-13 0.007049869 -0.009795481 -6.359791e-12 -2.2615179e-13
-3.7316726e-13 -0.0057607377 0.0020751106 1.2114735e-06 1.4964288e-09 -1.6609905e-09 0.00065308 -2.7457954e-09
-4.4455972e-09 -7.6975776e-10 -2.3583735e-09 0.000102398044 1.1965096e-05 0.0065951594 -0.0016337192 0.01235562
0.00037368818 -1.6218777e-06 6.061346e-06 8.1190274e-07 -3.862244e-06 0.0026291013 -1.6641812e-05 3.7253876e-08
-7.36502e-06 -7.893261e-08 -2.539029e-08 -1.3847388e-07 0.0015784048 1.7482336e-07 1.9739916e-11 1.853198e-23
-0.00063747825 -3.8278783e-30 -0.0011323087 -0.0054940507 0.0116003305 -5.3361354e-08 -1.4129727e-28 -0.00078292825
-1.16410405e-07 -3.2274653e-07 0.013460479 -1.3305659e-07 -0.012035466 -6.590302e-08 -2.09175e-05 3.1305477e-05
1.6196818e-08 4.706754e-09 -2.279669e-10 0.00014756514 0.0002501664 -5.245524e-05 -1.8183106e-05 -0.00052528566
1.9842223e-06 -0.005978086 -1.1709154e-06 -1.1975031e-06 -1.4502448e-06 -1.1293245e-06 -1.1936384e-06 -1.1586784e-06
-0.0008157545 -1.0865767e-06 0.000109589644 -1.7531262e-07 8.887313e-05 -0.012152424 -1.7774335e-08 2.3396213e-07
-1.9819709e-07 9.442412e-06 -0.00026023053 2.543666e-08 5.2811327e-08 1.2525138e-07 0.0003395394 7.615914e-08
1.4781244e-07 0.008049121 9.865626e-08 1.8203224e-07 4.1996223e-08 3.0350063e-23 1.0332248e-10 -0.00029956584

e_conv3.depth_conv.bias f4 [32]
00000000: f04c 593c 6acf cfb4 feed 8735 c464 ed3a
00000010: b7a0 f7bb 0c3d f934 eb5b 4d3c 5492 1338
00000020: 3295 d9b8 3488 abba 396b e034 8e26 1f3b
00000030: c680 653c ea88 8fbc c68d cbb4 21ab a837
00000040: 4cc8 4f3c fe01 003a c20c 1131 398b aab9
00000050: 72d4 7836 6736 ddbb 0d57 1caf ee5a 9038
00000060: 3f77 f032 61ea 28bc be53 cc3b e3cb 6db6
00000070: a68b 2abc 9f12 53b2 f5a9 ef35 0ffc beb9
0.013262972 -3.8707668e-07 1.0127549e-06 0.0018111696 -0.0075570005 4.6424282e-07 0.012534122 3.518381e-05
-0.00010375156 -0.0013086856 4.1801266e-07 0.0024284455 0.014007753 -0.01752134 -3.791485e-07 2.0106849e-05
0.012682032 0.00048831094 2.110753e-09 -0.00032528656 3.707854e-06 -0.00675087 -1.4219044e-10 6.883392e-05
2.7993904e-08 -0.010309787 0.006235569 -3.543443e-06 -0.010409271 -1.228605e-08 1.7856352e-06 -0.00036427422

e_conv3.point_conv.weight f4 [32, 32, 1, 1]
00000000: 78bf ce38 e399 3fb6 33e3 8a38 5685 d038
00000010: 994a cab8 4ccb 6637 2623 93b8 d2cd 2237
00000020: e45b 89b8 7943 3ab8 658a 9737 4af2 c537
00000030: 2c4d 7539 8764 83b9 0db8 d9b7 48c0 6538
00000040: a4f4 8f38 7395 7eb7 4945 5233 a777 20b6
00000050: ce97 6b39 9d0f 00b8 dfb4 8bab 1b18 d7b7
00000060: 039e 2e35 ed18 1cb9 1c79 bc38 2b92 3737
00000070: 5208 89b8 af06 34b5 9ac6 ebb7 8930 3b37
00000080: 7513 aaaf e89f e333 85ca a1a8 0a58 86a6
00000090: 83f4 df32 2089 21a0 32f5 f0b2 5f04 c31f
000000a0: 5996 c235 bd19 10b4 684c adb3 7664 9aa2
000000b0: 4b6c dfb4 9af6 fa34 3d1b 4c22 3d61 4220
000000c0: 0a5a 8db3 c812 d223 a194 511b d11f 8b31
000000d0: d812 5220 1d21 e430 3b31 b8ac 425f bb2e
000000e0: 9284 20b5 d5d2 6737 f72a 91b6 0cd9 1ca0
000000f0: 42b9 f32e c36e 8433 2ddc 9f9f 1d5d 8436
00000100: f258 7a37 3c38 2eb5 5a2d 0337 31d3 9937
00000110: 51fa 5ab7 d71d 2d36 858f 9e37 1537 cc35
00000120: 30db 30b7 ca64 2db6 12d1 2e37 fcfe 3a36
00000130: 396e 9b37 b10d a2b7 039e bab6 fc47 3eb6
00000140: 700d 6b37 3127 5735 3cd2 33b2 242e 7fb4
00000150: 9b16 1f38 8eb8 b6b6 9a41 85ac 8ee5 11b7
00000160: 82c5 3236 0006 7cb7 9c03 e137 a40e 0736
00000170: 0289 5db7 7313 4db4 4203 66b6 2239 9335
00000180: 7000 5d34 915b 50b3 0c36 1823 4064 2f2a
00000190: 65fe 8fb1 3083 1095 1812 bd33 417a 79b5
000001a0: 2c27 72ab 8e22 8fb6 1add bfac 7f37 669c
000001b0: 8b16 062c 6467 07ac ebe6 5994 7486 72a5
000001c0: ab26 a531 6cfc 6aab 233e b4b1 ac82 0000
000001d0: 6969 1380 c006 e5b0 ef7e e3ab 478e 6a28
000001e0: 7928 efb4 84ad a4b7 5172 832b 6526 0000
000001f0: bd9a 38af de61 cfb3 3daa 0080 2bff 58b4
00000200: 4f55 a5b7 e1ee 64a7 0b2b 8aae 17bd 4938
00000210: a4e3 ff36 ece4 0595 d372 2737 762a 42b0
00000220: 0cf1 d9b7 599d fb33 7793 88a6 8180 07b8
00000230: 09c1 0bb8 969a 8fb7 a47a 28ab f35d 192b
00000240: c52b 4f36 3fb2 6937 eb8d 3009 c60b ba98
00000250: 7082 afaf 17b0 3631 2915 dc2e 869d 51b2
00000260: 84b0 8b0a 6762 c5b5 1d9f 21b5 ce32 e7b2
00000270: b791 bab6 553c 0080 94de f7ac 568e 86b1
00000280: 4c9e 0824 2f25 e8b1 0e20 0100 ce49 3f01
00000290: 68d5 53a1 7733 6418 1d17 4ab0 4084 72ac
000002a0: 926a 3004 61ad 0080 b0fc 6b0f bbbe 5035
000002b0: b521 0000 47c9 8025 cbdd e021 d826 6401
000002c0: 3588 dbb5 d73d 7ea3 1446 66b0 404d 0080
000002d0: 3525 0000 2514 8a33 05a1 0080 419e 7bb4
000002e0: 91d0 06a9 1e1e 0080 70bc fb2d b22e e426
000002f0: eb6e 0180 3244 0080 3027 0000 738d 8ca8
00000300: 3f5c 02ad 219a 2ca9 7eb5 b329 ffcb 442a
00000310: 5450 c6a6 a6a8 1399 80a3 b928 0309 0100
00000320: af7e b8ac 81e5 33b4 7036 0c17 6ea4 0000
00000330: ceed 490e cfb2 0000 adea d5b3 46d7 f8b3
00000340: 86bb 63b6 7ba6 29b2 cdab a614 a3b7 0080
00000350: b0c8 0000 bab6 24a1 78e2 1284 3ea7 0000
00000360: 8029 8235 3917 3333 68ad 0000 96a4 d3ae
00000370: c110 f729 d69d cb30 1177 2bb4 7049 da26
00000380: 64f7 5234 7562 0d1d 8ab1 4f32 3882 0000
00000390: 13cf 0080 79bb ec33 8a88 73b5 003f 0000
000003a0: 94c2 15a9 541e 0000 9924 5034 f398 6ba5
000003b0: bab7 532e a046 0db5 61eb a305 83f8 db35
000003c0: 7a4d 91ae 07d7 0000 3e15 a02e 9b42 0080
000003d0: 61d6 3c2d ce38 0000 5a01 1a97 b846 0000
000003e0: 7970 0080 2da2 5e33 4b13 8a85 69a7 0080
000003f0: 0d55 0080 604d 0080 7c05 0080 b741 7230
9.858509e-05 -2.8550792e-06 6.622672e-05 9.943049e-05 -9.6460055e-05 1.3756402e-05 -7.016053e-05 9.703874e-06
-6.549785e-05 -4.4408695e-05 1.8065048e-05 2.3597055e-05 0.0002339377 -0.00025061166 -2.5954121e-05 5.477693e-05
6.864339e-05 -1.5174376e-05 4.895745e-08 -2.3911505e-06 0.00022467898 -3.053212e-05 -9.926746e-13 -2.5641222e-05
6.504999e-07 -0.00014886605 8.987097e-05 1.0941682e-05 -6.534219e-05 -6.706495e-07 -2.8106664e-05 1.1157369e-05
-3.0936645e-10 1.0599598e-07 -1.796242e-14 -9.321981e-16 2.6071808e-08 -1.3682601e-19 -2.805118e-08 8.2592944e-20
1.4497883e-06 -1.3420409e-07 -8.0698385e-08 -4.184815e-18 -4.161578e-07 4.6745555e-07 2.7661575e-18 1.6464613e-19
-6.582202e-08 2.27762e-17 1.73361e-22 4.0490495e-09 1.7793927e-19 1.6598595e-09 -5.23506e-12 8.5206966e-11
-5.979756e-07 1.3817761e-05 -4.3263385e-06 -1.3285529e-19 1.1083269e-10 6.1668764e-08 -6.770337e-20 3.9447464e-06
1.492187e-05 -6.4901883e-07 7.818768e-06 1.8337365e-05 -1.3052094e-05 2.5796378e-06 1.89019e-05 1.5215215e-06
-1.0541451e-05 -2.5837676e-06 1.0419886e-05 2.786458e-06 1.8528766e-05 -1.931828e-05 -5.561627e-06 -2.8354107e-06
1.401022e-05 8.015077e-07 -1.0466973e-08 -2.3765512e-07 3.7929607e-05 -5.4455077e-06 -3.7873706e-12 -8.696121e-06
2.6639032e-06 -1.50217675e-05 2.682377e-05 2.012509e-06 -1.3204526e-05 -1.9099188e-07 -3.4274567e-06 1.0968981e-06
2.0582388e-07 -4.8512053e-08 8.251381e-18 1.5577904e-13 -4.190769e-09 -2.9184057e-26 8.8042896e-08 -9.293763e-07
-8.6030033e-13 -4.265755e-06 -5.4530937e-12 -7.6172343e-22 1.905506e-12 -1.9242047e-12 -1.1001241e-26 -2.1035709e-16
4.806528e-09 -8.3483806e-13 -5.2457536e-09 4.6876e-41 -1.782688e-39 -1.6663861e-09 -1.6164551e-12 1.3020461e-14
-4.4546667e-07 -1.9631123e-05 9.339839e-13 1.3773e-41 -1.6789677e-10 -9.6569906e-08 -6.107e-41 -2.0209397e-07
-1.9709258e-05 -3.1770853e-15 -6.2831594e-11 4.8098238e-05 7.626093e-06 -2.7039724e-26 9.98071e-06 -7.063713e-10
-2.5980662e-05 1.171672e-07 -9.476866e-16 -3.2306187e-05 -3.331996e-05 -1.7118913e-05 -5.985579e-13 5.44869e-13
3.087088e-06 1.3929383e-05 2.1251959e-33 -4.809176e-24 -3.1924996e-10 2.6584581e-09 1.00082005e-10 -1.2201218e-08
1.3451611e-32 -1.4706283e-06 -6.0208714e-07 -2.6915043e-08 -5.5601954e-06 -2.1643e-41 -7.0448734e-12 -3.916095e-09
2.9624382e-17 -6.756316e-09 1.03335e-40 3.5134112e-38 -7.177202e-19 2.9494292e-24 -7.352002e-10 -3.4463682e-12
2.0737635e-36 -6.2197e-41 1.16350604e-29 7.776359e-07 1.2092e-41 2.2340851e-16 1.5237539e-18 4.1904855e-38
-1.6356413e-06 -1.3782463e-17 -8.37731e-10 -2.7712e-41 1.3347e-41 6.42979e-08 -5.7763e-41 -2.3433769e-07
-2.993488e-14 -1.0804e-41 2.861908e-11 1.5833335e-15 -1.31625e-40 -2.4464e-41 1.4058e-41 -1.5604466e-14
-7.410127e-12 -3.8325358e-14 7.980681e-14 1.7479072e-13 -1.3760783e-15 -7.63378e-24 2.0610033e-14 9.5068e-41
-5.2436592e-12 -1.6754167e-07 4.530515e-25 5.8986e-41 2.4889662e-30 6.4144e-41 -9.961273e-08 -1.1587558e-07
-3.393479e-06 -9.874948e-09 1.682948e-26 -6.5876e-41 7.1993e-41 -5.58072e-19 -1.7266207e-36 5.9995e-41
9.697833e-07 4.1697806e-08 6.2206e-41 -9.6244054e-11 1.097191e-13 1.4815054e-09 -1.5968932e-07 1.5146694e-15
1.9647774e-07 1.8712096e-21 1.20893535e-08 4.6714e-41 -7.4284e-41 1.10237075e-07 -9.0723245e-07 2.26e-41
-3.3253416e-14 1.088e-41 1.9384824e-07 -2.0434822e-16 4.8139027e-11 -5.2629366e-07 1.5414911e-35 1.6389098e-06
-6.607599e-11 7.7137e-41 7.279731e-11 -2.3894e-41 1.0734164e-11 2.0378e-41 -4.976179e-25 2.5369e-41
-4.0348e-41 5.18359e-08 -1.2984545e-35 -6.0055e-41 -3.051e-41 -2.7757e-41 -1.967e-42 8.8132474e-10

e_conv3.point_conv.bias f4 [32]
00000000: 86f4 7f3c 7bae 7db7 881b a13a fe0e 1eba
00000010: 3112 aaba b95f 0080 c144 0000 b291 64b3
00000020: 2f0b 0080 eb4d 983a 930b a03a 780d 97b9
00000030: b7fc 64b7 53e7 c2b2 6782 e737 3a14 9739
00000040: 6d67 29b7 d465 053b 6fa0 80b5 75ad a73b
00000050: 6e72 be3c 4fd4 c3b7 0b5e 013b 2ddc eca8
00000060: 60ee 87b5 7195 42b4 f333 8a3c 1b7b 2b3a
00000070: 0e02 03b7 1bb1 083a 46de f43c 9678 ceb3
0.015622264 -1.51205995e-05 0.001229153 -0.00060294557 -0.0012975392 -3.4339e-41 2.4664e-41 -5.3217896e-08
-4.012e-42 0.0011619901 0.0012210481 -0.00028811 -1.3648699e-05 -2.2689767e-08 2.759807e-05 0.00028816034
-1.0097266e-05 0.0020354884 -9.583435e-07 0.0051171132 0.023247924 -2.3344675e-05 0.0019739892 -2.629675e-14
-1.012766e-06 -1.8122024e-07 0.016870474 0.00065414765 -7.808687e-06 0.0005214379 0.029891144 -9.614557e-08

e_conv4.depth_conv.weight f4 [32, 1, 3, 3]
00000000: 335c 37bc 6554 2dbc bac2 0a3c 8258 f838
00000010: ee6a 58b7 3522 55bc 17f0 62b5 7fe8 a13b
00000020: 585a c4b5 1d64 54af 338a 9937 bfa5 9dba
00000030: 596b 253c 9296 343c 858b ccb5 6607 52bb
00000040: e47b 97b1 f526 a7ba 8148 68b6 1e49 be2f
00000050: cea2 0536 5fc8 c4ae 936c 033a 4f1b b1b0
00000060: 708d 1a2f 6d55 7b38 89a6 583b 57f8 1ea4
00000070: 4949 96b6 b0d9 8598 9925 8894 a3a5 8fba
00000080: 04e1 39bb 6a7c 0000 416e eb3a 5cab 613a
00000090: 11a4 c6b1 1e31 06bb ec50 c63a 4eca ae3b
000000a0: bf49 f0bb 21fd 9135 8c9a 7a28 3763 4dac
000000b0: 8b1c 5e37 802f 0100 4d67 0000 95ac b535
000000c0: 7b49 04b7 e213 0bbc 08b7 0000 3bc9 beb4
000000d0: cc89 a3b5 2487 0a39 bfbe 691f f54c 9624
000000e0: eac9 893b fe87 9d32 9df6 ce33 0695 0080
000000f0: 01d0 41b0 7dba 05a5 cda9 0080 cc4f f3bb
00000100: a99d 0000 5a1a 3cbc b5f8 da3b 3430 763b
00000110: bc2c f139 e6bc d113 52a4 ad30 86d5 9b3b
00000120: bf2e 859d f653 0000 ee66 143c c6e8 a6b3
00000130: 00b3 0bbb f6f5 2d3b e4e1 a3bb a276 b2bb
00000140: 5f92 0000 1371 8438 eea4 4cbc c952 c03b
00000150: 5c65 7e3b ec9b e33b d1fb 953b a661 4eb9
00000160: 4b8d 3c3c 7b9c a134 29ea 1a33 ef93 a13b
00000170: 1a15 e0ba 8685 32b9 e63e 09bc db96 ca32
00000180: 5670 4832 cf92 98bb 4925 d032 09fd 402a
00000190: d29d 6a2c 8db0 fe31 7e0b 0000 6579 9bb7
000001a0: ca46 0080 e317 d0b8 c974 0000 22cc c2b3
000001b0: ddc7 609d a027 a837 c5ed f692 0229 4cbb
000001c0: dcc1 8bb5 2f60 e7b9 7a02 9533 6524 45ba
000001d0: 5b7a 5024 165d 33ae 7630 a8bb 11c4 239d
000001e0: 8bee d1ba 400e c03b cee0 4a2f 7f43 0d1b
000001f0: 07b2 283b 1af1 5da2 22a1 08bb 3dcf 0329
00000200: fbcc 9bbb da5b 86bb f42d 9234 0126 823a
00000210: 1e29 39bb 1d6c e4b2 adf3 30aa e7c5 2b2d
00000220: 8eaa 592e be10 423c 5c95 0a2d f702 502e
00000230: 1b45 792e 6a8b 9b30 eb35 75b6 3c84 5baf
00000240: 8039 2b25 1ac1 552a ca9e 1a35 303f f13a
00000250: 1918 8539 fa32 62ba a22d 3c32 d2a8 723a
00000260: 56c2 b428 c29f 12b6 852c 1cb9 843d 5935
00000270: 5c17 9037 9e79 3535 fe36 3d35 a2d6 9034
00000280: 97eb cfbb d323 13b8 f520 27bc f821 a139
00000290: 015c 0000 18db 53b0 7992 5cbb f30c b3bb
000002a0: 3a94 963b 792f efb6 67bf 0000 79b8 fcb5
000002b0: 3d59 eb35 794c a9b5 9ff9 6ab4 f421 1f37
000002c0: b601 80b5 49e9 9eba aaad 083b 8190 903b
000002d0: 830a 2cbc 8ed5 b33b 6ecc 1eb9 3ec5 b6b9
000002e0: e0dc 46bc be8f 96b9 4a60 a133 6581 9034
000002f0: b934 0339 be76 89ae e556 943a 8382 43bc
00000300: ff73 7137 d96b d22f fac4 d4a0 ede7 2939
00000310: 2637 553c 5e65 f3b2 f0f7 2f34 be6b 1635
00000320: d1c0 7fbb 7167 e439 1717 1935 f035 3d35
00000330: 6b49 aa34 4e21 8535 6816 5fbb b2cb adb2
00000340: 43e6 2507 36fa 292f 00df 11bb 28ff 143a
00000350: 276b f13a 2a4c 9e3a 590c 8bb3 429a 0fbb
00000360: c86a 173c 84ef 0d3b f73d 5f25 6f33 32ba
00000370: c054 3434 43f3 0e3c d338 df36 9de9 c63a
00000380: 073c dc24 b2d2 ab89 7637 b83b eb00 502f
00000390: e17d 2cbb 1474 b3b9 624e 28a0 1681 4439
000003a0: 8127 0139 344f 4ab9 a184 a5bb 6296 0134
000003b0: daec 0a34 8a6c 9f32 11c7 073c d828 9633
000003c0: 652b beb8 8657 2d34 0769 ad39 2fd6 4faf
000003d0: 7d27 7131 9778 cb31 815f bcbb 3e68 66b4
000003e0: a6bb 9bb2 d084 d0b5 6ad8 d7bb 8998 22b7
000003f0: 6ba3 9339 8965 06b8 347b 9ab9 dfdf 4431
-0.011191416 -0.010579203 0.008469278 0.000118420474 -1.28995e-05 -0.013008644 -8.454094e-07 0.004941046
-1.4629431e-06 -1.9316855e-10 1.8303375e-05 -0.0012027546 0.010096394 0.011022227 -1.523979e-06 -0.0032047867
-4.408763e-09 -0.0012752699 -3.4612897e-06 3.4612752e-10 1.991331e-06 -8.948641e-11 0.0005013432 -1.2886207e-09
1.4056467e-10 5.9922622e-05 0.0033058247 -3.447114e-17 -4.47888e-06 -3.4599502e-24 -1.374732e-26 -0.0010959398
-0.002836288 4.4631e-41 0.0017961935 0.00086086034 -5.7812106e-09 -0.0020476053 0.0015130318 0.005334175
-0.00733301 1.0877012e-06 1.39113e-14 -2.9187327e-12 1.3238877e-05 1.08875e-40 3.7057e-41 1.3535779e-06
-7.884922e-06 -0.008488627 6.5659e-41 -3.5536672e-07 -1.218455e-06 0.0001321105 4.949745e-20 6.51825e-17
0.0042049782 1.8339048e-08 9.637481e-08 -5.346e-41 -7.050858e-10 -1.1599096e-16 -6.0913e-41 -0.007425284
5.6558e-41 -0.011480892 0.00668248 0.0037565352 0.00046000432 5.2945286e-27 1.2634109e-09 0.0047556786
-3.525314e-21 3.012e-41 0.0090577435 -7.7723186e-08 -0.002131641 0.002654431 -0.0050012935 -0.005446271
5.2508e-41 6.315312e-05 -0.012490494 0.0058692438 0.003881774 0.0069460776 0.004577138 -0.00019682068
0.011508296 3.0102441e-07 3.6068887e-08 0.004930965 -0.0017096133 -0.00017025144 -0.008376813 2.3584496e-08
1.1667074e-08 -0.004656173 2.4231342e-08 1.7140815e-13 3.3341008e-12 7.4124444e-09 4.123e-42 -1.8533969e-05
-2.5394e-41 -9.922662e-05 4.1895e-41 -9.0709605e-08 -2.974948e-21 2.0045612e-05 -1.5583397e-27 -0.0031152372
-1.0412728e-06 -0.00044131416 6.938804e-08 -0.0007520377 4.520645e-17 -4.0782565e-11 -0.00513273 -2.1674234e-21
-0.0016016526 0.0058610737 1.845166e-10 1.1685056e-22 0.0025740878 -3.0078723e-18 -0.0020847996 2.9267594e-14
-0.00475466 -0.004100305 2.7228054e-07 0.0009929539 -0.0028253268 -2.6591858e-08 -1.5716482e-13 9.764168e-12
4.949157e-11 0.011844812 7.877556e-12 4.7296358e-11 5.6677423e-11 1.1317358e-09 -3.653923e-06 -1.9964913e-10
1.4851367e-16 1.8985196e-13 5.760054e-07 0.0018405672 0.0002538569 -0.0008628812 1.0953416e-08 0.00092567236
2.0068294e-14 -2.1848687e-06 -0.00014893904 8.0928316e-07 1.7177015e-05 6.760473e-07 7.048801e-07 2.6978256e-07
-0.006345223 -3.5080895e-05 -0.010200729 0.00030733622 3.3005e-41 -7.7072704e-10 -0.003365664 -0.00546419
0.0045953067 -7.1282816e-06 6.8662e-41 -1.8829152e-06 1.7534836e-06 -1.2613738e-06 -2.188376e-07 9.485044e-06
-9.537241e-07 -0.0012123968 0.0020855465 0.0044117575 -0.010500553 0.005488104 -0.0001514421 -0.00034860702
-0.012137622 -0.00028717326 7.5146616e-08 2.6916237e-07 0.00012512774 -6.2511316e-11 0.00113174 -0.011932972
1.4391727e-05 3.8275408e-10 -3.6044545e-19 0.00016203495 0.013013637 -2.833502e-08 1.6388344e-07 5.603614e-07
-0.003902484 0.0004356462 5.703054e-07 7.0486476e-07 3.1718386e-07 9.918965e-07 -0.0034040455 -2.023248e-08
1.2480888e-34 1.5459353e-10 -0.0022258162 0.0005683773 0.0018418775 0.0012077142 -6.474938e-08 -0.0021912013
0.009241767 0.0021657655 1.9363161e-16 -0.00067978253 1.6794638e-07 0.00872499 6.652533e-06 0.0015175823
9.551148e-17 -4.136489e-33 0.005621846 1.8917816e-10 -0.0026320147 -0.00034228025 -1.4256088e-19 0.00018740105
0.00012317115 -0.00019293727 -0.005051211 1.206877e-07 1.2938418e-07 1.8559394e-08 0.008287207 6.992349e-08
-9.067989e-05 1.6143721e-07 0.00033075383 -1.8902634e-10 3.5092562e-09 5.921787e-09 -0.0057486896 -2.1458342e-07
-1.8129708e-08 -1.5535861e-06 -0.006587078 -9.691467e-06 0.0002815978 -3.204265e-05 -0.00029464962 2.864901e-09

e_conv4.depth_conv.bias f4 [32]
00000000: 85b9 75bb 45d6 c6bb 2c7d d634 6fa8 7e38
00000010: a0e7 583c 4269 dd3c b89e 05bb 05da c9b3
00000020: c52c 2d3c af52 763b 4f5a fd39 a87c 053c
00000030: 461f 69b4 d26f eebc 282b 2c30 1567 c135
00000040: ac8c 2b31 e241 243c 4442 89b0 ea55 12bb
00000050: 0120 133a e7b2 8db1 e599 a93b 7f6f a7b9
00000060: 16a0 6f32 3f38 d73a be71 8c38 d994 16ba
00000070: 1f61 893b c3f2 a3b5 5350 d8b9 e196 e3bb
-0.0037494611 -0.0060680234 3.995168e-07 6.0715185e-05 0.013238817 0.02702773 -0.0020388793 -9.3994494e-08
0.010569756 0.0037585904 0.00048323206 0.008147396 -2.1711193e-07 -0.029106054 6.2634564e-10 1.4409621e-06
2.4963738e-09 0.010025473 -9.986896e-10 -0.002232904 0.0005612374 -4.123979e-09 0.0051758164 -0.00031935793
1.394803e-08 0.0016419961 6.696906e-05 -0.0005744226 0.004192486 -1.2215099e-06 -0.00041258577 -0.0069454764

e_conv4.point_conv.weight f4 [32, 32, 1, 1]
00000000: eaee 43b3 1735 0080 efb6 0000 6d46 0000
00000010: 0042 8711 e2e2 0000 55b3 0532 cb8b 0080
00000020: 4cee 51ab 0fc5 0000 ed9f 0080 c5e6 fea0
00000030: 378d 0000 db95 6618 8152 0000 3715 35b0
00000040: d757 bd2d 1897 0080 91af 5f33 385e 8235
00000050: 9ada 121f 4b36 e626 d06d 6424 c0c3 4e00
00000060: 4c41 0000 3aed d5ac a6a6 0000 ef37 0000
00000070: e2fb a6b5 7b1a 58b4 a0ca 8229 7baa 0080
00000080: 124a b035 38c3 5336 d71d 4eb1 3e81 afb5
00000090: 0f46 eeb6 b800 8739 c5ba 76b6 b98e 8330
000000a0: 8ac4 cc37 05a4 61b5 26ce ddb3 2f96 08b7
000000b0: 4af8 dbb5 5c2c 12b9 0371 8db6 8447 a1b0
000000c0: 3f6c 81af fc92 f3b5 d99d 0936 5125 df34
000000d0: 080d a8b4 7b10 0637 a6c6 d7b5 125b 89b5
000000e0: ca74 a0ac 56a6 b9b4 b721 33b3 3e7a 88b7
000000f0: 3ca3 acb5 0b39 03af 0ccf 75b8 d5b5 df36
00000100: d38a 8ab3 9a37 8e34 10ea a426 3da5 32a0
00000110: 5b1a 0080 423f 1880 fbc4 4636 4b04 b62f
00000120: 7370 6631 64d6 9528 2241 0080 525a 19b6
00000130: aae5 cf32 ef75 71ad 05af 8fb5 7f19 4fab
00000140: 51dc 2430 47f6 9829 0da3 a7a4 2933 a031
00000150: 1a87 a1b4 8768 0000 0587 0080 d5ce 4e91
00000160: 3c70 0080 85b3 0000 d098 8130 7782 0000
00000170: 328e 3520 58be 0080 500a 7fa5 7eff 35b5
00000180: fc93 0080 427e 0180 4b71 0180 bb9c 0080
00000190: 766d 0080 da9f 0080 b75b 0000 3946 0000
000001a0: afc2 0000 4c39 9899 1a2a 0000 510e 4a28
000001b0: b58a dfb5 49d8 c622 8c5d 6532 b204 0100
000001c0: a2b4 1d99 1bdb c025 a63a 9ab0 3605 e231
000001d0: a14e 0080 30a9 0080 fe6f 0100 1130 0d34
000001e0: 298e 0000 b4a3 5b36 27ea ee2f ff93 0080
000001f0: a00c 1c34 ecc9 3ea6 0adc 4fa5 5f4d 0100
00000200: 8e55 5eb1 bcc1 0000 e845 0000 ed9e 64b3
00000210: 4ec3 e5b5 bec8 0000 c13d 0000 9a28 802c
00000220: 3bf1 86b5 918e dc35 9b04 1d0b 8652 91a8
00000230: 8a69 0135 4b92 b027 8eaa 038d 5474 0080
00000240: 67f1 0080 4216 c8ab 3343 a4ae 753a 0000
00000250: d027 0080 0b2e 8a34 892b 0ea6 0b40 e835
00000260: 7389 cb30 d35d 0080 596e b32a 3ad0 b18d
00000270: 9390 0000 c07e 5432 1426 0080 c395 1335
00000280: 7517 d895 23ff 309b 4833 65ad 17ce be34
00000290: b43a 0080 5d53 0000 84a2 0180 ffc8 0000
000002a0: 8b91 381a 78a8 3228 e7eb 0080 ec04 26b6
000002b0: 7ba1 0080 5881 0d84 c374 ba2d 6381 a532
000002c0: 28d2 b633 4a76 f6a5 38ff 2613 08da 5bb6
000002d0: 1120 0635 4bb1 6234 564f e532 aa3b 8b2b
000002e0: 7fa7 2f9c f9ad 40af ce76 0080 80c4 6226
000002f0: de14 0080 6c92 6fb5 f9b2 90aa 0f02 f006
00000300: 3065 18b7 d5fe 78b7 51f7 3e32 4f46 f833
00000310: 7fe2 0038 f243 c938 26d3 a4b6 786f e1af
00000320: db73 dc37 95b2 f136 ab32 7935 d4c2 a137
00000330: ce05 04b4 1813 8bb8 04c8 5e31 3881 c931
00000340: 820f 76ad 3f40 9f37 decc c6ac 4164 a6b6
00000350: 8b75 be35 8fde adac 9433 8637 6faa 47b5
00000360: bce6 8b2d 5b83 6336 47e6 9835 4b58 b5b5
00000370: a710 2437 fcda 2933 7943 06b7 e6c1 c2b7
00000380: 059e 1e36 763d 04b4 6807 802f 2b9f 8730
00000390: d208 9834 447b 0935 627a 2eb3 bc96 23ae
000003a0: a83d 4134 f920 a633 2691 dc34 3617 2434
000003b0: 9c18 b1ac 92af 0db5 c15a ab33 2832 55b1
000003c0: 67d4 442a 3ea7 7634 9b45 bba8 26a9 27b3
000003d0: 37d0 07af b2e6 c4a9 fcf9 30b2 33df fdb1
000003e0: 1fda ab2a 4dd3 aa35 4f45 0e31 7adf 46b2
000003f0: 23fe c233 cd6b 89b0 6ca1 13b2 8b72 a235
-4.5619267e-08 -1.9045e-41 6.5624e-41 2.5264e-41 2.133992e-28 8.139e-41 7.782394e-09 -5.0148e-41
-7.458242e-13 7.0691e-41 -5.737e-41 -4.3181984e-19 5.0658e-41 2.980246e-24 2.9597e-41 -6.5877565e-10
2.1525821e-11 -5.4202e-41 5.208091e-08 9.713176e-07 3.1097526e-20 1.5974172e-15 4.9532634e-17 7.23339e-39
2.3424e-41 -6.0801615e-12 5.9782e-41 2.0065e-41 -1.2441271e-06 -2.0126201e-07 5.8083096e-14 -6.1157e-41
1.3134579e-06 3.1555082e-06 -2.9993907e-09 -1.307613e-06 -7.1011086e-06 0.00025749742 -3.676557e-06 9.572069e-10
2.4410216e-05 -8.405771e-07 -1.03286126e-07 -8.141199e-06 -1.6389033e-06 -0.0001394017 -4.2152838e-06 -1.1734618e-09
-2.3541877e-10 -1.8147689e-06 2.050647e-06 4.1564138e-07 -3.130192e-07 7.99086e-06 -1.6076563e-06 -1.02338e-06
-4.5604397e-12 -3.457996e-07 -4.170735e-08 -1.6269387e-05 -1.2862506e-06 -1.1934646e-10 -5.860538e-05 6.667086e-06
-6.451378e-08 2.6490017e-07 1.1443229e-15 -1.5131859e-19 -9.455e-42 -2.226745e-39 2.9618957e-06 3.3108657e-10
3.3533325e-09 1.66353e-14 -2.3365e-41 -2.285135e-06 2.420241e-08 -1.37254505e-11 -1.0705268e-06 -7.3576556e-13
5.997594e-10 6.792878e-14 -7.2700924e-17 4.662429e-09 -3.0086886e-07 3.7497e-41 -4.8436e-41 -1.631427e-28
-4.0262e-41 6.44e-41 9.429417e-10 4.6802e-41 1.5378345e-19 -6.8282e-41 -2.2121218e-16 -6.7799544e-07
-5.3087e-41 -1.37128e-40 -1.32477e-40 -5.6224e-41 -3.9267e-41 -5.7344e-41 3.2901e-41 2.5191e-41
6.984e-41 -1.5739574e-23 1.5103e-41 1.1216357e-14 -1.6655164e-06 5.389701e-18 1.33508244e-08 9.352e-41
-8.153188e-24 3.3455162e-16 -1.1221644e-09 6.578058e-09 -2.8207e-41 -6.0693e-41 1.32011e-40 1.3149135e-07
5.0997e-41 3.272883e-06 4.3458323e-10 -5.3091e-41 1.4533225e-07 -6.6193147e-16 -1.802894e-16 1.19591e-40
-3.2353884e-09 6.9499e-41 2.5078e-41 -5.322993e-08 -1.7118671e-06 7.2013e-41 2.2153e-41 3.6424865e-12
-1.0053985e-06 1.643277e-06 3.0240565e-32 -1.6134023e-14 4.8209824e-07 4.9008424e-15 -4.057279e-31 -4.173e-41
-8.6599e-41 -1.4217032e-12 -7.4697935e-11 2.097e-41 -1.4282e-41 2.5738004e-07 -4.932515e-16 1.7303986e-06
1.4809259e-09 -3.3658e-41 3.1873356e-13 -1.0958596e-30 5.1863e-41 1.2368844e-08 -1.366e-41 5.49797e-07
-8.7278714e-26 -1.4640818e-22 -1.302853e-11 3.5540208e-07 -2.1059e-41 2.9905e-41 -1.50135e-40 7.2104e-41
3.8167877e-23 9.917516e-15 -8.4626e-41 -2.4738792e-06 -5.7928e-41 -1.6633862e-36 2.1197604e-11 1.9267366e-08
8.5132626e-08 -4.2754353e-16 2.1077978e-27 -3.2760454e-06 4.996555e-07 2.1112389e-07 2.6695187e-08 9.893104e-13
-5.8119127e-22 -1.7524106e-10 -4.2619e-41 7.867581e-16 -7.486e-42 -8.924751e-07 -2.5703726e-13 9.028099e-35
-9.083466e-06 -1.4841285e-05 1.1115689e-08 1.1561189e-07 3.072852e-05 9.597083e-05 -4.912162e-06 -4.1006465e-10
2.6279993e-05 7.2031494e-06 9.283346e-07 1.928342e-05 -1.229557e-07 -6.631593e-05 3.2418948e-09 5.8645604e-09
-1.39869245e-11 1.8984194e-05 -5.6502433e-12 -4.9588566e-06 1.4190313e-06 -4.9416647e-12 1.5998063e-05 -7.438129e-07
1.5904937e-11 3.3902095e-06 1.1391902e-06 -1.3511248e-06 9.779039e-06 3.9547544e-08 -8.002732e-06 -2.3216893e-05
2.3635814e-06 -1.2315817e-07 2.3288327e-10 9.867781e-10 2.8318624e-07 5.121585e-07 -4.062384e-08 -3.7195788e-11
1.7996956e-07 7.735975e-08 4.1083803e-07 1.5282134e-07 -5.0333748e-12 -5.278208e-07 7.979316e-08 -3.102409e-09
1.7481989e-13 2.2971378e-07 -2.0791357e-14 -3.9036557e-08 -1.2352151e-10 -8.744168e-14 -1.0301388e-08 -7.388644e-09
3.0527054e-13 1.2727484e-06 2.0703117e-09 -1.15759295e-08 9.080056e-08 -9.998701e-10 -8.593229e-09 1.2103277e-06

e_conv4.point_conv.bias f4 [32]
00000000: 11fb 89a9 cd16 0f3b 0cd7 db30 4cdc 95b5
00000010: 0710 0100 5111 e1ad 2163 8a3b e4fc be37
00000020: 41d7 a6b4 da40 0080 40b5 1f3a dc6e 5ba7
00000030: 1c10 9ab5 3974 0000 7a5b acae 5f0c 93b6
00000040: e503 953d bc49 1338 4b1b deb2 d047 9289
00000050: 3e8b 5bb6 a6e5 0080 295d 8cb0 bd96 abb2
00000060: c5f0 eb3d 93c8 1ab1 ee42 adb3 4ede 06b5
00000070: f2bf 5d39 a8df 9238 d3aa 02af 8d61 833b
-6.127575e-14 0.0021833659 1.5995467e-09 -1.116548e-06 9.7585e-41 -2.5587229e-11 0.004223243 2.2767526e-05
-3.1076527e-07 -2.3264e-41 0.0006092377 -3.0452452e-15 -1.1478583e-06 4.1693e-41 -7.837904e-11 -4.3823816e-06
0.072761334 3.51162e-05 -2.5856613e-08 -3.5215754e-33 -3.2714593e-06 -8.2382e-41 -1.0212818e-09 -1.9975568e-08
0.115205325 -2.2523963e-09 -8.068115e-08 -5.0242386e-07 0.00021147708 7.003482e-05 -1.188412e-10 0.0040094317
