quantize_result/param.pth (torch, 52881 bytes, 28 tensors)

module_22.weight f4 [3, 1, 3, 3]
0.35546875 0.1875 0.25 0.1640625 0.0625 0.14453125 0.203125 0.125
0.24609375 -0.29296875 -0.23828125 -0.4140625 -0.1484375 -0.13671875 -0.2421875 -0.08203125
-0.16796875 -0.390625 0.15234375 -0.0234375 -0.2890625 0.22265625 0.06640625 -0.078125
0.4765625 0.234375 0.1015625
00000000: 0000 b63e 0000 403e 0000 803e 0000 283e
00000010: 0000 803d 0000 143e 0000 503e 0000 003e
00000020: 0000 7c3e 0000 96be 0000 74be 0000 d4be
00000030: 0000 18be 0000 0cbe 0000 78be 0000 a8bd
00000040: 0000 2cbe 0000 c8be 0000 1c3e 0000 c0bc
00000050: 0000 94be 0000 643e 0000 883d 0000 a0bd
00000060: 0000 f43e 0000 703e 0000 d03d

module_22.bias f4 [3]
-0.30859375 0.125 0.03515625
00000000: 0000 9ebe 0000 003e 0000 103d

module_23.weight f4 [32, 3, 1, 1]
0.00390625 0.12890625 -0.1015625 0.0 0.0 0.0 0.0 0.0
0.0 0.1328125 -0.4140625 -0.30859375 0.02734375 0.14453125 -0.01171875 0.01171875
0.16796875 -0.2109375 0.0 0.0 0.0 -0.35546875 0.40625 0.0390625
-0.32421875 0.32421875 -0.47265625 -0.05078125 -0.0703125 0.046875 0.0 0.0
0.0 0.0 0.0 0.0 0.0 0.0 0.0 -0.20703125
0.25 -0.125 0.0 0.0 0.0 0.0 0.0 0.0
-0.00390625 0.03125 -0.06640625 0.0 0.0 0.0 -0.27734375 0.25
-0.1484375 0.0390625 -0.046875 0.0625 0.0 0.0 0.0 0.10546875
-0.07421875 0.4765625 0.0 0.0 0.0 0.0 0.0 0.0
0.15234375 -0.2578125 0.140625 0.0 0.0 0.0 0.0 0.0
0.0 0.0 0.0 0.0 0.0 0.0 0.0 0.0
0.0 0.0 0.0 0.0 0.0 0.0 0.0 0.0
00000000: 0000 803b 0000 043e 0000 d0bd 0000 0000
00000010: 0000 0000 0000 0000 0000 0000 0000 0000
00000020: 0000 0000 0000 083e 0000 d4be 0000 9ebe
00000030: 0000 e03c 0000 143e 0000 40bc 0000 403c
00000040: 0000 2c3e 0000 58be 0000 0000 0000 0000
00000050: 0000 0000 0000 b6be 0000 d03e 0000 203d
00000060: 0000 a6be 0000 a63e 0000 f2be 0000 50bd
00000070: 0000 90bd 0000 403d 0000 0000 0000 0000
00000080: 0000 0000 0000 0000 0000 0000 0000 0000
00000090: 0000 0000 0000 0000 0000 0000 0000 54be
000000a0: 0000 803e 0000 00be 0000 0000 0000 0000
000000b0: 0000 0000 0000 0000 0000 0000 0000 0000
000000c0: 0000 80bb 0000 003d 0000 88bd 0000 0000
000000d0: 0000 0000 0000 0000 0000 8ebe 0000 803e
000000e0: 0000 18be 0000 203d 0000 40bd 0000 803d
000000f0: 0000 0000 0000 0000 0000 0000 0000 d83d
00000100: 0000 98bd 0000 f43e 0000 0000 0000 0000
00000110: 0000 0000 0000 0000 0000 0000 0000 0000
00000120: 0000 1c3e 0000 84be 0000 103e 0000 0000
00000130: 0000 0000 0000 0000 0000 0000 0000 0000
00000140: 0000 0000 0000 0000 0000 0000 0000 0000
00000150: 0000 0000 0000 0000 0000 0000 0000 0000
00000160: 0000 0000 0000 0000 0000 0000 0000 0000
00000170: 0000 0000 0000 0000 0000 0000 0000 0000

module_23.bias f4 [32]
0.16015625 0.0 0.0 0.24609375 0.2578125 0.39453125 0.0 0.1328125
0.26953125 0.015625 0.0 0.0 0.0 0.44921875 0.0 0.0
0.07421875 0.0 0.49609375 0.01171875 0.0 0.2734375 0.0 0.0
0.06640625 0.0 0.0 0.0 0.0 0.0 0.0 0.0
00000000: 0000 243e 0000 0000 0000 0000 0000 7c3e
00000010: 0000 843e 0000 ca3e 0000 0000 0000 083e
00000020: 0000 8a3e 0000 803c 0000 0000 0000 0000
00000030: 0000 0000 0000 e63e 0000 0000 0000 0000
00000040: 0000 983d 0000 0000 0000 fe3e 0000 403c
00000050: 0000 0000 0000 8c3e 0000 0000 0000 0000
00000060: 0000 883d 0000 0000 0000 0000 0000 0000
00000070: 0000 0000 0000 0000 0000 0000 0000 0000

module_25.weight f4 [32, 1, 3, 3]
0.0 0.0 0.0 0.0 0.0 0.0 -0.00390625 -0.00390625
-0.00390625 0.0 0.0 0.0 0.0 0.0 0.0 0.0
0.0 0.0 0.0 0.0 0.0 0.0 0.0 0.0
0.0 0.0 0.0 -0.11328125 -0.0546875 -0.375 0.0078125 0.125
-0.078125 -0.0859375 0.04296875 -0.1640625 0.015625 0.0078125 0.0078125 0.00390625
0.00390625 -0.00390625 0.00390625 0.00390625 -0.0078125 0.08984375 0.08984375 0.07421875
0.05078125 0.0390625 0.12890625 0.20703125 0.12109375 0.203125 0.0 0.0
0.0 0.0 0.0 0.0 0.0 0.0 0.0 0.20703125
0.2421875 0.3125 0.0859375 0.15234375 0.1875 -0.0703125 0.0703125 0.125
-0.08203125 -0.015625 0.1171875 -0.2265625 -0.14453125 -0.08984375 -0.3515625 -0.17578125
-0.1015625 0.0 0.0 0.0 0.0 0.0 0.0 0.0
0.0 0.0 0.0 0.0 0.0 0.0 0.0 0.0
0.0 0.0 0.0 0.0 0.0 0.0 0.0 0.0
0.0 0.0 0.0 0.0 0.0 0.0 0.0 0.0
0.0 0.0 0.0 0.0 0.0 -0.296875 -0.01171875 0.23046875
-0.21875 -0.0390625 0.11328125 -0.1953125 -0.02734375 0.28515625 0.0 0.0
0.0 0.0 0.0 0.0 0.0 0.0 0.0 0.0
0.0 0.0 0.0 0.0 0.0 0.0 0.0 0.0
0.0 0.0 0.0 0.0 0.0 0.0 0.0 0.0
0.0 0.0 0.0 0.0 0.0 0.0 0.0 0.0
0.0 0.0 0.3203125 0.2421875 0.19140625 -0.0703125 0.1015625 -0.00390625
-0.234375 -0.0078125 -0.30078125 0.0 0.0 0.0 0.0 0.0
0.0 0.0 0.0 0.0 0.0 0.0 0.0 0.0
0.0 0.0 0.0 0.0 0.0 0.1015625 -0.0625 -0.0078125
0.09375 -0.07421875 0.0 0.33203125 0.07421875 0.109375 0.0 0.0
0.0 0.0 0.0 0.0 0.0 0.0 0.0 0.0
0.0 0.0 0.0 0.0 0.0 0.0 0.0 0.0
0.125 -0.015625 -0.0625 0.0546875 0.00390625 -0.04296875 -0.046875 -0.078125
-0.1875 0.0 0.0 0.0 0.0 0.0 0.0 0.0
0.0 0.0 0.0 0.0 0.0 0.0 0.0 0.0
0.0 0.0 0.0 0.0 0.0 0.0 0.0 0.0
0.0 0.0 0.0 0.0 0.0 0.0 0.0 0.0
00000000: 0000 0000 0000 0000 0000 0000 0000 0000
00000010: 0000 0000 0000 0000 0000 80bb 0000 80bb
00000020: 0000 80bb 0000 0000 0000 0000 0000 0000
00000030: 0000 0000 0000 0000 0000 0000 0000 0000
00000040: 0000 0000 0000 0000 0000 0000 0000 0000
00000050: 0000 0000 0000 0000 0000 0000 0000 0000
00000060: 0000 0000 0000 0000 0000 0000 0000 e8bd
00000070: 0000 60bd 0000 c0be 0000 003c 0000 003e
00000080: 0000 a0bd 0000 b0bd 0000 303d 0000 28be
00000090: 0000 803c 0000 003c 0000 003c 0000 803b
000000a0: 0000 803b 0000 80bb 0000 803b 0000 803b
000000b0: 0000 00bc 0000 b83d 0000 b83d 0000 983d
000000c0: 0000 503d 0000 203d 0000 043e 0000 543e
000000d0: 0000 f83d 0000 503e 0000 0000 0000 0000
000000e0: 0000 0000 0000 0000 0000 0000 0000 0000
000000f0: 0000 0000 0000 0000 0000 0000 0000 543e
00000100: 0000 783e 0000 a03e 0000 b03d 0000 1c3e
00000110: 0000 403e 0000 90bd 0000 903d 0000 003e
00000120: 0000 a8bd 0000 80bc 0000 f03d 0000 68be
00000130: 0000 14be 0000 b8bd 0000 b4be 0000 34be
00000140: 0000 d0bd 0000 0000 0000 0000 0000 0000
00000150: 0000 0000 0000 0000 0000 0000 0000 0000
00000160: 0000 0000 0000 0000 0000 0000 0000 0000
00000170: 0000 0000 0000 0000 0000 0000 0000 0000
00000180: 0000 0000 0000 0000 0000 0000 0000 0000
00000190: 0000 0000 0000 0000 0000 0000 0000 0000
000001a0: 0000 0000 0000 0000 0000 0000 0000 0000
000001b0: 0000 0000 0000 0000 0000 0000 0000 0000
000001c0: 0000 0000 0000 0000 0000 0000 0000 0000
000001d0: 0000 0000 0000 98be 0000 40bc 0000 6c3e
000001e0: 0000 60be 0000 20bd 0000 e83d 0000 48be
000001f0: 0000 e0bc 0000 923e 0000 0000 0000 0000
00000200: 0000 0000 0000 0000 0000 0000 0000 0000
00000210: 0000 0000 0000 0000 0000 0000 0000 0000
00000220: 0000 0000 0000 0000 0000 0000 0000 0000
00000230: 0000 0000 0000 0000 0000 0000 0000 0000
00000240: 0000 0000 0000 0000 0000 0000 0000 0000
00000250: 0000 0000 0000 0000 0000 0000 0000 0000
00000260: 0000 0000 0000 0000 0000 0000 0000 0000
00000270: 0000 0000 0000 0000 0000 0000 0000 0000
00000280: 0000 0000 0000 0000 0000 a43e 0000 783e
00000290: 0000 443e 0000 90bd 0000 d03d 0000 80bb
000002a0: 0000 70be 0000 00bc 0000 9abe 0000 0000
000002b0: 0000 0000 0000 0000 0000 0000 0000 0000
000002c0: 0000 0000 0000 0000 0000 0000 0000 0000
000002d0: 0000 0000 0000 0000 0000 0000 0000 0000
000002e0: 0000 0000 0000 0000 0000 0000 0000 0000
000002f0: 0000 0000 0000 d03d 0000 80bd 0000 00bc
00000300: 0000 c03d 0000 98bd 0000 0000 0000 aa3e
00000310: 0000 983d 0000 e03d 0000 0000 0000 0000
00000320: 0000 0000 0000 0000 0000 0000 0000 0000
00000330: 0000 0000 0000 0000 0000 0000 0000 0000
00000340: 0000 0000 0000 0000 0000 0000 0000 0000
00000350: 0000 0000 0000 0000 0000 0000 0000 0000
00000360: 0000 003e 0000 80bc 0000 80bd 0000 603d
00000370: 0000 803b 0000 30bd 0000 40bd 0000 a0bd
00000380: 0000 40be 0000 0000 0000 0000 0000 0000
00000390: 0000 0000 0000 0000 0000 0000 0000 0000
000003a0: 0000 0000 0000 0000 0000 0000 0000 0000
000003b0: 0000 0000 0000 0000 0000 0000 0000 0000
000003c0: 0000 0000 0000 0000 0000 0000 0000 0000
000003d0: 0000 0000 0000 0000 0000 0000 0000 0000
000003e0: 0000 0000 0000 0000 0000 0000 0000 0000
000003f0: 0000 0000 0000 0000 0000 0000 0000 0000

module_25.bias f4 [32]
0.021484375 0.0 0.0 -0.033203125 0.072265625 -0.01953125 0.0 -0.02734375
0.017578125 0.0 0.0 0.0 0.0 -0.0703125 0.0 0.0
0.0 0.0 0.12695312 0.0 0.0 -0.048828125 0.0 0.0
0.02734375 0.0 0.0 0.001953125 0.0 0.0 0.0 0.0
00000000: 0000 b03c 0000 0000 0000 0000 0000 08bd
00000010: 0000 943d 0000 a0bc 0000 0000 0000 e0bc
00000020: 0000 903c 0000 0000 0000 0000 0000 0000
00000030: 0000 0000 0000 90bd 0000 0000 0000 0000
00000040: 0000 0000 0000 0000 0000 023e 0000 0000
00000050: 0000 0000 0000 48bd 0000 0000 0000 0000
00000060: 0000 e03c 0000 0000 0000 0000 0000 003b
00000070: 0000 0000 0000 0000 0000 0000 0000 0000

module_26.weight f4 [32, 32, 1, 1]
0.0 0.0 0.0 -0.234375 -0.00390625 0.19921875 0.0 -0.046875
0.03125 0.0 0.0 0.0 0.0 0.25390625 0.0 0.0
0.0 0.0 -0.14453125 0.0 0.0 0.1875 0.0 0.0
-0.04296875 0.0 0.0 0.0 0.0 0.0 0.0 0.0
0.0 0.0 0.0 0.0 0.0 0.0 0.0 0.0
0.0 0.0 0.0 0.0 0.0 0.0 0.0 0.0
0.0 0.0 0.0 0.0 0.0 0.0 0.0 0.0
0.0 0.0 0.0 0.0 0.0 0.0 0.0 0.0
0.0 0.0 0.0 -0.23828125 0.00390625 0.14453125 0.0 -0.14453125
-0.3515625 0.0 0.0 0.0 0.0 -0.16015625 0.0 0.0
0.0 0.0 0.0078125 0.0 0.0 -0.33203125 0.0 0.0
0.08203125 0.0 0.0 0.0 0.0 0.0 0.0 0.0
0.0 0.0 0.0 0.0 0.0 0.0 0.0 0.0
0.0 0.0 0.0 0.0 0.0 0.0 0.0 0.0
0.0 0.0 0.0 0.0 0.0 0.0 0.0 0.0
0.0 0.0 0.0 0.0 0.0 0.0 0.0 0.0
0.0 0.0 0.0 0.0 0.0 0.0 0.0 0.0
0.0 0.0 0.0 0.0 0.0 0.0 0.0 0.0
0.0 0.0 0.0 0.0 0.0 0.0 0.0 0.0
0.0 0.0 0.0 0.0 0.0 0.0 0.0 0.0
0.0 0.0 0.0 0.0 0.0 0.0 0.0 0.0
0.0 0.0 0.0 0.0 0.0 0.0 0.0 0.0
0.0 0.0 0.0 0.0 0.0 0.0 0.0 0.0
0.0 0.0 0.0 0.0 0.0 0.0 0.0 0.0
0.0 0.0 0.0 0.0 0.0 0.0 0.0 0.0
0.0 0.0 0.0 0.0 0.0 0.0 0.0 0.0
0.0 0.0 0.0 0.0 0.0 0.0 0.0 0.0
0.0 0.0 0.0 0.0 0.0 0.0 0.0 0.0
-0.01171875 0.0 0.0 -0.234375 -0.01953125 0.16015625 0.0 -0.05859375
0.15625 0.0 0.0 0.0 0.0 -0.15234375 0.0 0.0
0.0 0.0 -0.140625 0.0 0.0 0.3125 0.0 0.0
-0.05078125 0.0 0.0 0.0 0.0 0.0 0.0 0.0
00000000: 0000 0000 0000 0000 0000 0000 0000 70be
00000010: 0000 80bb 0000 4c3e 0000 0000 0000 40bd
00000020: 0000 003d 0000 0000 0000 0000 0000 0000
00000030: 0000 0000 0000 823e 0000 0000 0000 0000
00000040: 0000 0000 0000 0000 0000 14be 0000 0000
00000050: 0000 0000 0000 403e 0000 0000 0000 0000
00000060: 0000 30bd 0000 0000 0000 0000 0000 0000
00000070: 0000 0000 0000 0000 0000 0000 0000 0000
00000080: 0000 0000 0000 0000 0000 0000 0000 0000
00000090: 0000 0000 0000 0000 0000 0000 0000 0000
000000a0: 0000 0000 0000 0000 0000 0000 0000 0000
000000b0: 0000 0000 0000 0000 0000 0000 0000 0000
000000c0: 0000 0000 0000 0000 0000 0000 0000 0000
000000d0: 0000 0000 0000 0000 0000 0000 0000 0000
000000e0: 0000 0000 0000 0000 0000 0000 0000 0000
000000f0: 0000 0000 0000 0000 0000 0000 0000 0000
00000100: 0000 0000 0000 0000 0000 0000 0000 74be
00000110: 0000 803b 0000 143e 0000 0000 0000 14be
00000120: 0000 b4be 0000 0000 0000 0000 0000 0000
00000130: 0000 0000 0000 24be 0000 0000 0000 0000
00000140: 0000 0000 0000 0000 0000 003c 0000 0000
00000150: 0000 0000 0000 aabe 0000 0000 0000 0000
00000160: 0000 a83d 0000 0000 0000 0000 0000 0000
00000170: 0000 0000 0000 0000 0000 0000 0000 0000
00000180: 0000 0000 0000 0000 0000 0000 0000 0000
00000190: 0000 0000 0000 0000 0000 0000 0000 0000
000001a0: 0000 0000 0000 0000 0000 0000 0000 0000
000001b0: 0000 0000 0000 0000 0000 0000 0000 0000
000001c0: 0000 0000 0000 0000 0000 0000 0000 0000
000001d0: 0000 0000 0000 0000 0000 0000 0000 0000
000001e0: 0000 0000 0000 0000 0000 0000 0000 0000
000001f0: 0000 0000 0000 0000 0000 0000 0000 0000
00000200: 0000 0000 0000 0000 0000 0000 0000 0000
00000210: 0000 0000 0000 0000 0000 0000 0000 0000
00000220: 0000 0000 0000 0000 0000 0000 0000 0000
00000230: 0000 0000 0000 0000 0000 0000 0000 0000
00000240: 0000 0000 0000 0000 0000 0000 0000 0000
00000250: 0000 0000 0000 0000 0000 0000 0000 0000
00000260: 0000 0000 0000 0000 0000 0000 0000 0000
00000270: 0000 0000 0000 0000 0000 0000 0000 0000
00000280: 0000 0000 0000 0000 0000 0000 0000 0000
00000290: 0000 0000 0000 0000 0000 0000 0000 0000
000002a0: 0000 0000 0000 0000 0000 0000 0000 0000
000002b0: 0000 0000 0000 0000 0000 0000 0000 0000
000002c0: 0000 0000 0000 0000 0000 0000 0000 0000
000002d0: 0000 0000 0000 0000 0000 0000 0000 0000
000002e0: 0000 0000 0000 0000 0000 0000 0000 0000
000002f0: 0000 0000 0000 0000 0000 0000 0000 0000
00000300: 0000 0000 0000 0000 0000 0000 0000 0000
00000310: 0000 0000 0000 0000 0000 0000 0000 0000
00000320: 0000 0000 0000 0000 0000 0000 0000 0000
00000330: 0000 0000 0000 0000 0000 0000 0000 0000
00000340: 0000 0000 0000 0000 0000 0000 0000 0000
00000350: 0000 0000 0000 0000 0000 0000 0000 0000
00000360: 0000 0000 0000 0000 0000 0000 0000 0000
00000370: 0000 0000 0000 0000 0000 0000 0000 0000
00000380: 0000 40bc 0000 0000 0000 0000 0000 70be
00000390: 0000 a0bc 0000 243e 0000 0000 0000 70bd
000003a0: 0000 203e 0000 0000 0000 0000 0000 0000
000003b0: 0000 0000 0000 1cbe 0000 0000 0000 0000
000003c0: 0000 0000 0000 0000 0000 10be 0000 0000
000003d0: 0000 0000 0000 a03e 0000 0000 0000 0000
000003e0: 0000 50bd 0000 0000 0000 0000 0000 0000
000003f0: 0000 0000 0000 0000 0000 0000 0000 0000

module_26.bias f4 [32]
-0.0390625 0.0 0.05859375 0.0 0.0 0.0 0.0 -0.109375
0.0 0.0 0.1328125 0.0 0.0 0.0 0.0 0.2734375
0.0 0.0 -0.05859375 0.0390625 0.125 0.0 0.0 0.0
0.0 0.0 0.12109375 0.0 0.0 0.0 0.0 0.0
00000000: 0000 20bd 0000 0000 0000 703d 0000 0000
00000010: 0000 0000 0000 0000 0000 0000 0000 e0bd
00000020: 0000 0000 0000 0000 0000 083e 0000 0000
00000030: 0000 0000 0000 0000 0000 0000 0000 8c3e
00000040: 0000 0000 0000 0000 0000 70bd 0000 203d
00000050: 0000 003e 0000 0000 0000 0000 0000 0000
00000060: 0000 0000 0000 0000 0000 f83d 0000 0000
00000070: 0000 0000 0000 0000 0000 0000 0000 0000

module_28.weight f4 [32, 1, 3, 3]
1.55785e-40 -1.31093e-40 1.47532e-40 3.3655e-41 -3.4286e-41 7.8946e-41 8.6868e-41 1.58173e-40
1.38102e-40 1.44548e-40 -1.01254e-40 -9.5931e-41 -1.00371e-40 -2.9553e-41 -8.54e-42 -9.4037e-41
-1.17744e-40 8.2018e-41 -1.90725e-40 1.10886e-40 -1.17193e-40 -5.6897e-41 1.26285e-40 -8.5071e-41
1.04202e-40 1.33849e-40 -2.0002e-41 1.0543e-40 -1.16975e-40 6.6543e-41 1.57114e-40 1.10675e-40
6.485e-42 1.05491e-40 -1.80313e-40 -6.9134e-41 -9.7507e-41 -7.9999e-41 -9.0476e-41 -7.592e-41
-1.37186e-40 1.1299e-40 -7.916e-42 1.22939e-40 3.6875e-41 5.5381e-41 -5.3974e-41 2.427e-41
1.20062e-40 -2.983e-41 -1.61088e-40 1.28046e-40 -1.10285e-40 6.9196e-41 1.8995e-40 -8.832e-41
-4.0336e-41 -1.28886e-40 -5.3734e-41 6.0484e-41 1.0557e-41 1.54118e-40 -9.013e-41 1.08239e-40
7.8805e-41 -1.27045e-40 8.7992e-41 1.45732e-40 -1.41837e-40 1.54886e-40 5.83e-41 -1.08508e-40
6.2732e-41 -1.09064e-40 7.0588e-41 1.70495e-40 7.1619e-41 -1.93346e-40 7.5943e-41 -1.22549e-40
1.26354e-40 7.4054e-41 2.0387e-41 -4.6959e-41 -1.17184e-40 1.04223e-40 -1.201e-41 -1.20627e-40
-9.5384e-41 -1.32382e-40 -1.57821e-40 8.6768e-41 1.31421e-40 6.2103e-41 -5.8368e-41 -1.09174e-40
-1.23083e-40 -1.17764e-40 7.8931e-41 -6.7907e-41 -5.7466e-41 -5.5822e-41 -2.8708e-41 -8.3366e-41
4.631e-41 -2.9904e-41 -9.6264e-41 8.9659e-41 -5.8269e-41 1.23768e-40 1.7609e-41 1.51677e-40
-1.35619e-40 -2.01571e-40 9.4902e-41 1.0763e-40 -1.55705e-40 6.2019e-41 -1.83754e-40 -6.7714e-41
-1.1739e-41 -1.39492e-40 1.1696e-40 1.4309e-41 5.3363e-41 6.105e-42 7.486e-41 1.09872e-40
7.3745e-41 -1.1024e-41 1.89292e-40 6.1881e-41 -1.44045e-40 4.0584e-41 8.44e-43 1.62733e-40
-1.87289e-40 -3.5719e-41 -7.65e-42 1.187e-41 -1.2343e-41 -5.0613e-41 -1.8405e-40 8.5817e-41
3.4797e-41 -1.3929e-41 1.75375e-40 -6.1165e-41 3.4887e-41 -1.18134e-40 1.16915e-40 -8.2095e-41
1.08693e-40 1.3127e-40 1.2395e-40 -3.001e-41 -1.51626e-40 1.5586e-40 -1.33363e-40 -1.11583e-40
1.8817e-40 1.3645e-40 -1.80912e-40 5.3919e-41 -5.2032e-41 -1.17998e-40 -1.06244e-40 1.51976e-40
1.02909e-40 1.77214e-40 2.602e-41 -1.44869e-40 2.1399e-41 1.17675e-40 -1.53975e-40 -6.761e-41
1.19173e-40 1.82703e-40 -1.25928e-40 -3.0459e-41 5.9782e-41 1.42585e-40 -8.6568e-41 -2.7956e-41
-8.225e-41 -8.1327e-41 4.703e-41 -1.689e-40 -1.2563e-41 -4.7702e-41 -1.58469e-40 1.26076e-40
-4.5527e-41 -1.1831e-41 -1.20084e-40 1.06007e-40 -3.3606e-41 -2.34e-42 -6.4793e-41 -1.68554e-40
-1.75134e-40 -1.52105e-40 6.2945e-41 -1.049e-40 8.2214e-41 -2.00463e-40 8.084e-41 -1.004e-41
-1.348e-42 -1.6942e-41 1.88015e-40 -1.30186e-40 -1.1254e-41 7.9796e-41 -1.73077e-40 9.7931e-41
2.2956e-41 1.85849e-40 9.5297e-41 -2.1919e-41 -2.0107e-41 9.2808e-41 3.1493e-41 -1.40466e-40
1.84366e-40 1.47492e-40 1.07042e-40 9.7696e-41 8.7504e-41 -3.5879e-41 -7.8096e-41 5.6e-42
-7.9583e-41 9.1098e-41 8.3632e-41 -1.17217e-40 -4.7781e-41 -1.32819e-40 -8.6886e-41 4.889e-42
1.02347e-40 1.7599e-41 -7.6212e-41 -3.3825e-41 -1.0818e-40 2.2403e-41 6.5471e-41 -3e-43
7.8003e-41 1.595e-41 -1.14647e-40 -4.1556e-41 -1.67948e-40 1.13553e-40 -1.73401e-40 6.7545e-41
00000000: 44b2 0100 6f6d 0180 429b 0100 d15d 0000
00000010: 935f 0080 12dc 0000 27f2 0000 ecb8 0100
00000020: f980 0100 f192 0100 411a 0180 6b0b 0180
00000030: cb17 0180 6252 0080 ce17 0080 2306 0180
00000040: 3948 0180 a2e4 0000 aa13 0280 1b35 0100
00000050: b046 0180 9b9e 0080 0860 0100 25ed 0080
00000060: 7922 0100 1e75 0100 c237 0080 e525 0100
00000070: 1446 0180 7fb9 0000 f8b5 0100 8434 0100
00000080: 1412 0000 1126 0100 a4f6 0180 b8c0 0080
00000090: cf0f 0180 01df 0080 36fc 0080 a2d3 0080
000000a0: 6b7e 0180 f83a 0100 1116 0080 b456 0100
000000b0: cb66 0000 619a 0000 7596 0080 a843 0000
000000c0: af4e 0100 2753 0080 0cc1 0180 f164 0100
000000d0: 6e33 0180 e4c0 0000 8111 0200 33f6 0080
000000e0: 7170 0080 4867 0180 ca95 0080 9ba8 0000
000000f0: 6e1d 0000 9ead 0100 3ffb 0080 ba2d 0100
00000100: addb 0000 2662 0180 49f5 0000 3e96 0100
00000110: 628b 0180 c2af 0100 84a2 0000 7a2e 0180
00000120: dfae 0000 0730 0180 c5c4 0000 45db 0100
00000130: a5c7 0000 f81a 0280 b3d3 0000 9e55 0180
00000140: 3960 0100 6fce 0000 d538 0000 e782 0080
00000150: a946 0180 8822 0100 7b21 0080 4250 0180
00000160: e409 0180 0771 0180 f1b7 0180 e0f1 0000
00000170: 596e 0100 1ead 0000 b5a2 0080 5530 0180
00000180: 1b57 0180 4748 0180 07dc 0000 4cbd 0080
00000190: 31a0 0080 9c9b 0080 0750 0080 64e8 0080
000001a0: 1881 0000 5c53 0080 580c 0180 eff9 0000
000001b0: 6ea2 0080 0459 0100 1631 0000 d0a6 0100
000001c0: 0d7a 0180 e631 0280 8c08 0100 072c 0100
000001d0: 0bb2 0180 e2ac 0000 3b00 0280 c2bc 0080
000001e0: b920 0080 d984 0180 0946 0100 e327 0000
000001f0: c194 0000 0511 0000 aed0 0000 4732 0100
00000200: 92cd 0000 bb1e 0080 ab0f 0200 80ac 0000
00000210: 8a91 0180 2271 0000 5a02 0000 a2c5 0100
00000220: 160a 0280 9263 0080 5315 0080 1721 0000
00000230: 6822 0080 178d 0080 0e01 0280 39ef 0000
00000240: 0061 0000 d426 0080 e0e8 0100 81aa 0080
00000250: 4061 0000 4f49 0180 e945 0100 d9e4 0080
00000260: fe2e 0100 ed6d 0100 8659 0100 a853 0080
00000270: aca6 0180 79b2 0100 c373 0180 0c37 0180
00000280: 8b0c 0200 5e7c 0100 4ff8 0180 4e96 0000
00000290: 0b91 0080 ee48 0180 2a28 0180 a6a7 0100
000002a0: de1e 0100 00ee 0100 8848 0000 d693 0180
000002b0: a73b 0000 0848 0100 38ad 0180 78bc 0080
000002c0: 354c 0100 4dfd 0100 095f 0180 e854 0080
000002d0: a6a6 0000 788d 0100 51f1 0080 ee4d 0080
000002e0: 48e5 0080 b5e2 0080 1a83 0000 d3d6 0180
000002f0: 0523 0080 f984 0080 bfb9 0180 735f 0100
00000300: e97e 0080 fb20 0080 bf4e 0180 8127 0100
00000310: ae5d 0080 8606 0080 9eb4 0080 dcd5 0180
00000320: 34e8 0180 02a8 0180 77af 0000 6b24 0180
00000330: 2ee5 0000 cf2e 0280 59e1 0000 fd1b 0080
00000340: c203 0080 3a2f 0080 1c0c 0200 e86a 0180
00000350: 5f1f 0080 70de 0000 78e2 0180 fe10 0100
00000360: fe3f 0000 1206 0200 a609 0100 1a3d 0080
00000370: 0d38 0080 b602 0100 ca57 0000 9087 0180
00000380: f001 0200 269b 0100 642a 0100 5610 0100
00000390: edf3 0000 0464 0080 b3d9 0080 9c0f 0000
000003a0: d8dd 0080 f2fd 0000 22e9 0000 c146 0180
000003b0: 3285 0080 3f72 0180 34f2 0080 a10d 0000
000003c0: 4d1d 0100 0f31 0000 73d4 0080 4a5e 0080
000003d0: 902d 0180 733e 0000 82b6 0000 d600 0080
000003e0: 71d9 0000 762c 0000 973f 0180 d773 0080
000003f0: 2cd4 0180 8a3c 0100 5fe3 0180 4abc 0000

module_28.bias f4 [32]
1.0107e-40 9.703e-41 2.3215e-41 1.12166e-40 1.3737e-41 -1.91375e-40 1.23062e-40 -1.44922e-40
-9.846e-41 -9.1047e-41 1.68827e-40 -3.55e-43 1.5794e-41 -1.41992e-40 -1.07728e-40 1.709e-40
-5.9863e-41 -1.10619e-40 -3.796e-42 -1.60125e-40 -1.2067e-41 1.20973e-40 1.62476e-40 -8.917e-41
-8.348e-42 3.4088e-41 -6e-45 -1.0338e-40 -9.7487e-41 4.1994e-41 2.922e-41 -7.8421e-41
00000000: be19 0100 7b0e 0100 b740 0000 ac38 0100
00000010: 4b26 0000 7a15 0280 0c57 0100 fc93 0180
00000020: 7712 0180 cdfd 0080 9fd6 0100 fd00 0080
00000030: 072c 0000 d18b 0180 4d2c 0180 66dc 0100
00000040: e0a6 0080 5c34 0180 950a 0080 5dbe 0180
00000050: a321 0080 3951 0100 ebc4 0100 92f8 0080
00000060: 4517 0080 065f 0000 0400 0080 2e20 0180
00000070: c10f 0180 1075 0000 7451 0000 9bda 0080

module_29.weight f4 [32, 32, 1, 1]
-7.7165e-41 -7.7986e-41 -7.8767e-41 6.971e-41 -2.1175e-41 -1.1356e-40 9.3542e-41 -4.7787e-41
1.07883e-40 -1.41575e-40 8.779e-41 1.04659e-40 -1.184e-41 -1.30126e-40 2.473e-42 -1.42093e-40
-5.7574e-41 1.08483e-40 1.36167e-40 2.02958e-40 3.176e-41 -1.73569e-40 -6.628e-42 -9.2116e-41
2.5523e-41 9.8785e-41 7.3313e-41 4.9155e-41 5.9377e-41 1.65936e-40 1.26621e-40 -1.19444e-40
4.3394e-41 1.3733e-41 6.667e-41 1.34331e-40 1.4877e-40 -8.1145e-41 -3.1382e-41 -1.0263e-40
-8.3743e-41 2.8082e-41 -5.989e-41 -1.8857e-41 -5.041e-41 -1.0556e-40 -1.15457e-40 -1.355e-42
-1.29715e-40 1.34464e-40 1.23248e-40 4.5307e-41 1.1905e-40 -9.1601e-41 3.0662e-41 -1.19025e-40
-7.4412e-41 -1.19403e-40 9.3406e-41 -2.3807e-41 -3.337e-41 1.86967e-40 3.5105e-41 -1.28732e-40
1.11968e-40 3.6769e-41 -6.1925e-41 1.12845e-40 -2.43e-42 -1.67953e-40 -1.8142e-40 -9.2753e-41
-1.14085e-40 -9.0684e-41 1.37197e-40 1.597e-42 -1.0911e-40 -1.37965e-40 -4.7152e-41 1.57067e-40
8.8519e-41 -1.91612e-40 1.0636e-40 1.06176e-40 9.2233e-41 -8.9123e-41 -1.19007e-40 -1.98386e-40
4.6351e-41 -8.8154e-41 -1.55588e-40 -4.8737e-41 1.82267e-40 -5.893e-41 -3.0148e-41 -1.9247e-41
9.177e-41 -5.3375e-41 1.08107e-40 -3.5663e-41 1.16678e-40 1.3375e-40 2.5436e-41 -1.34219e-40
-4.24e-41 1.079e-41 1.16591e-40 1.09528e-40 1.50219e-40 1.157e-42 8.9097e-41 -1.50921e-40
9.3841e-41 -6.9259e-41 -1.26148e-40 -1.3484e-40 -1.7285e-40 1.04081e-40 7.8918e-41 3.3146e-41
1.673e-41 1.19756e-40 -9.087e-42 3.4961e-41 1.97426e-40 1.44967e-40 1.21275e-40 1.08525e-40
4.2098e-41 -1.13245e-40 -1.29176e-40 3.6651e-41 -1.19651e-40 -6.8215e-41 -2.1398e-41 9.4841e-41
6.2239e-41 -5.288e-41 1.02714e-40 -5.0099e-41 -1.58907e-40 6.6179e-41 -2.629e-41 -1.16511e-40
-1.47487e-40 3.0338e-41 -1.42446e-40 -4.2717e-41 -1.56545e-40 4.3104e-41 -1.00892e-40 -1.7474e-41
-1.23749e-40 1.12146e-40 -1.51804e-40 -1.10207e-40 -1.6386e-40 -3.7532e-41 -1.83179e-40 -2.3441e-41
-1.36875e-40 5.534e-42 1.7916e-41 4.1656e-41 -8.6918e-41 -1.58481e-40 -1.03794e-40 -1.83067e-40
1.08539e-40 7.145e-41 6.1122e-41 -1.19548e-40 -2.877e-41 -8.0597e-41 1.4296e-40 1.06906e-40
-1.11157e-40 -1.22577e-40 -1.8266e-41 -8.7605e-41 -4.5318e-41 -1.06549e-40 -7.7385e-41 -1.12733e-40
7.5395e-41 8.6344e-41 -1.04627e-40 7.686e-42 1.18987e-40 1.13315e-40 4.6858e-41 7.786e-42
4.6632e-41 1.12615e-40 4.053e-42 -4.529e-42 1.08469e-40 -5.5561e-41 -2.8088e-41 -9.256e-41
-1.03668e-40 -1.3993e-41 1.30642e-40 -1.78048e-40 -1.44826e-40 -7.4514e-41 1.96864e-40 1.49542e-40
1.31771e-40 2.881e-42 1.862e-41 3.8625e-41 -1.27576e-40 -1.85221e-40 5.4721e-41 1.35742e-40
-1.27874e-40 -1.06822e-40 4.85e-42 -1.50006e-40 1.84073e-40 -9.5854e-41 8.694e-42 8.9095e-41
1.51534e-40 -1.19555e-40 -1.25565e-40 -1.5085e-41 -1.05086e-40 3.1725e-41 -1.37711e-40 -7.2102e-41
8.933e-42 1.4306e-41 -7.718e-41 1.863e-41 -1.8211e-40 9.8804e-41 -1.17317e-40 -6.7704e-41
-7.765e-41 -9.0088e-41 -6.4482e-41 -1.07711e-40 -6.9317e-41 2.725e-41 6.0536e-41 -8.5356e-41
1.32183e-40 -1.5883e-40 9.534e-42 -1.22692e-40 -1.4246e-40 4.9317e-41 -1.13364e-40 -9.2009e-41
00000000: 1bd7 0080 65d9 0080 92db 0080 53c2 0000
00000010: 073b 0080 8f3c 0180 c204 0100 3685 0080
00000020: bc2c 0100 a78a 0180 b9f4 0000 bf23 0100
00000030: 0121 0080 bd6a 0180 e506 0000 198c 0180
00000040: 7ea0 0080 682e 0100 947b 0100 c435 0200
00000050: 8958 0000 d7e3 0180 7a12 0080 c800 0180
00000060: 2647 0000 5f13 0100 5ecc 0000 0689 0000
00000070: 85a5 0000 90ce 0100 f860 0100 f64c 0180
00000080: f778 0000 4826 0000 d9b9 0000 7676 0100
00000090: b69e 0100 33e2 0080 7b57 0080 171e 0180
000000a0: 71e9 0080 484e 0000 f3a6 0080 9134 0080
000000b0: 868c 0080 4226 0180 d941 0180 c703 0080
000000c0: 9869 0180 d576 0100 9157 0100 4c7e 0000
000000d0: dd4b 0100 59ff 0080 7955 0000 cb4b 0180
000000e0: 6ecf 0080 d94c 0180 6104 0100 5d42 0080
000000f0: 065d 0080 3009 0200 dc61 0000 da66 0180
00000100: 1f38 0100 7f66 0000 9fac 0080 913a 0100
00000110: c606 0080 2fd4 0180 baf9 0180 8f02 0180
00000120: 063e 0180 cafc 0080 737e 0100 7404 0000
00000130: 2730 0180 9780 0180 7183 0080 d7b5 0100
00000140: c1f6 0000 2316 0280 7d28 0100 fa27 0100
00000150: 1c01 0100 70f8 0080 be4b 0180 0529 0280
00000160: 3581 0000 bdf5 0080 b7b1 0180 dc87 0080
00000170: 16fc 0100 46a4 0080 0a54 0080 a735 0080
00000180: d1ff 0000 ca94 0080 5c2d 0100 6a63 0080
00000190: 4045 0100 d774 0100 e846 0000 2676 0180
000001a0: 3276 0080 141e 0000 0245 0100 5231 0100
000001b0: c0a2 0100 3a03 0000 5ef8 0000 b5a4 0180
000001c0: 9705 0100 11c1 0080 a65f 0180 e177 0180
000001d0: d6e1 0180 2322 0100 fedb 0000 665c 0000
000001e0: a32e 0000 d54d 0100 5519 0080 7561 0000
000001f0: 5826 0200 1c94 0100 1152 0100 862e 0100
00000200: 5a75 0000 ae3b 0180 1768 0180 2b66 0000
00000210: 8a4d 0180 28be 0080 a63b 0080 6108 0100
00000220: 7fad 0000 6893 0080 531e 0100 a88b 0080
00000230: f8ba 0180 7bb8 0000 4949 0080 c944 0180
00000240: 229b 0180 9254 0000 158d 0180 1477 0080
00000250: 62b4 0180 2878 0000 3f19 0180 b630 0080
00000260: f658 0180 9e38 0100 2ba7 0180 3633 0180
00000270: c6c8 0180 a068 0080 a1fe 0180 5841 0080
00000280: 8d7d 0180 6d0f 0000 f131 0000 1f74 0000
00000290: 4bf2 0080 c8b9 0180 5621 0180 51fe 0180
000002a0: 902e 0100 2cc7 0000 62aa 0000 404d 0180
000002b0: 3350 0080 ace0 0080 848e 0100 032a 0100
000002c0: dc35 0180 b255 0180 eb32 0080 35f4 0080
000002d0: 547e 0080 0429 0180 b8d7 0080 413a 0180
000002e0: 2cd2 0000 b1f0 0000 a823 0180 6d15 0000
000002f0: b04b 0100 e03b 0100 9f82 0000 b415 0000
00000300: fe81 0000 ed39 0100 4c0b 0000 a00c 0080
00000310: 5e2e 0100 e29a 0080 4c4e 0080 0502 0180
00000320: fc20 0180 0227 0080 2d6c 0100 53f0 0180
00000330: b793 0180 b7cf 0080 c724 0200 dda0 0100
00000340: 536f 0100 0808 0000 e833 0000 ac6b 0000
00000350: a163 0180 5204 0280 8a98 0000 657a 0100
00000360: 7664 0180 c729 0180 850d 0000 28a2 0180
00000370: 1f01 0200 340b 0180 3c18 0000 5cf8 0000
00000380: 6aa6 0100 454d 0180 065e 0180 0d2a 0080
00000390: f024 0180 7058 0000 e27f 0180 fec8 0080
000003a0: e718 0000 e127 0000 25d7 0080 ef33 0000
000003b0: a6fb 0180 6d13 0100 0847 0180 bbbc 0080
000003c0: 75d8 0080 21fb 0080 c0b3 0080 412c 0180
000003d0: 3ac1 0080 f64b 0000 c0a8 0000 f0ed 0080
000003e0: 7970 0100 c1ba 0180 941a 0000 0456 0180
000003f0: 1f8d 0180 7a89 0000 033c 0180 7c00 0180

module_29.bias f4 [32]
1.254e-41 -4.8181e-41 1.03974e-40 1.9006e-41 -3.69e-41 -1.629e-40 -1.34457e-40 -1.36681e-40
-6.0477e-41 -3.3495e-41 1.07267e-40 -2.3823e-41 1.09377e-40 -1.1618e-40 -1.21634e-40 -5.4606e-41
5.0116e-41 -6.9567e-41 -1.347e-42 6.3752e-41 -1.86085e-40 3.6292e-41 -3.7666e-41 1.12709e-40
1.19243e-40 -9.8982e-41 -2.9897e-41 4.6543e-41 -7.6175e-41 -3.4075e-41 1.01764e-40 -5.06e-41
00000000: f522 0000 4f86 0080 d621 0100 fb34 0000
00000010: dd66 0080 19c6 0180 d076 0180 037d 0180
00000020: 96a8 0080 5f5d 0080 042b 0100 6942 0080
00000030: e630 0100 dd43 0180 1153 0180 3898 0080
00000040: b48b 0000 edc1 0080 c103 0080 b7b1 0000
00000050: bb06 0280 2b65 0000 ff68 0080 303a 0100
00000060: 674c 0100 ec13 0180 5753 0080 be81 0000
00000070: 58d4 0080 fd5e 0080 ad1b 0100 0d8d 0080

module_31.weight f4 [32, 1, 3, 3]
1.39e-42 -5.3684e-41 4.5497e-41 1.0755e-40 3.324e-42 1.07335e-40 -1.96941e-40 1.26889e-40
-3.9402e-41 5.3769e-41 1.7483e-41 -2.5463e-41 6.2667e-41 -9.3109e-41 1.38467e-40 -6.31e-42
6.9027e-41 -1.03448e-40 1.3077e-41 -1.20706e-40 5.5711e-41 -1.21907e-40 -1.3709e-41 -6.644e-41
5.685e-41 -1.41423e-40 5.2762e-41 -7.0302e-41 -1.45665e-40 6.8955e-41 -1.7424e-40 -6.274e-42
6.6574e-41 1.2713e-41 -4.2364e-41 -5.4471e-41 -8.8897e-41 -4.82e-42 8.699e-42 9.1743e-41
1.3807e-41 -2.1076e-41 -5.796e-42 -1.46118e-40 3.7364e-41 9.041e-42 -1.17332e-40 5.371e-42
-1.1294e-40 -5.693e-42 4.559e-41 -5.0399e-41 -3.5342e-41 -1.0567e-41 1.47223e-40 1.31994e-40
-3.0984e-41 7.654e-41 2.2659e-41 1.22258e-40 -8.9277e-41 1.01703e-40 1.9998e-41 1.07694e-40
1.18162e-40 4.9313e-41 -6.722e-41 9.7542e-41 7.9549e-41 2.5991e-41 -2.5408e-41 1.1502e-40
-2.655e-42 -1.67073e-40 -1.1977e-41 9.796e-42 1.45036e-40 -4.3607e-41 -2.7847e-41 9.4585e-41
1.12352e-40 -9.8279e-41 4.4952e-41 1.76767e-40 -1.763e-42 -3.368e-41 -5.991e-41 1.42509e-40
-1.93978e-40 -1.15712e-40 1.81502e-40 -4.9195e-41 1.26016e-40 -1.10331e-40 4.3e-42 -7.1043e-41
-4.663e-41 9.5067e-41 -2.6768e-41 -1.62059e-40 -1.32063e-40 2.5797e-41 1.12662e-40 1.01888e-40
-1.14458e-40 1.03804e-40 -3.6477e-41 -9.2474e-41 -2.03185e-40 1.1113e-40 -1.87543e-40 -1.18564e-40
-1.2208e-40 5.0486e-41 1.60205e-40 1.24703e-40 -1.4216e-41 -1.60733e-40 1.12307e-40 6.4461e-41
4.0422e-41 -2.1506e-41 1.15478e-40 -1.96248e-40 -9.29e-43 3.1553e-41 -6.9336e-41 -3.4103e-41
-7.7011e-41 5.5559e-41 -2.817e-41 1.03175e-40 -1.567e-42 -3.8026e-41 -5.8763e-41 2.8075e-41
1.02183e-40 -8.9822e-41 -2.405e-41 -5.6007e-41 -9.3645e-41 4.0671e-41 -1.053e-41 7.2289e-41
-7.1262e-41 1.23687e-40 7.053e-42 -5.9681e-41 -7.9291e-41 -1.17102e-40 5.824e-41 -1.31963e-40
-5.9138e-41 -1.55331e-40 1.2557e-41 4.8489e-41 -1.4344e-40 1.13864e-40 1.99768e-40 5.6685e-41
-1.46192e-40 1.02222e-40 5.3688e-41 -1.59339e-40 1.01385e-40 -7.2222e-41 8.0468e-41 1.45029e-40
-1.25996e-40 -8.8268e-41 1.0283e-40 1.2547e-40 -8.1989e-41 -8.692e-41 -1.31215e-40 1.03144e-40
1.47716e-40 -1.73203e-40 1.6735e-40 6.2208e-41 -8.2155e-41 5.424e-41 5.579e-42 8.573e-42
-6.4241e-41 -5.1585e-41 9.8723e-41 -1.66348e-40 2.3758e-41 -7.919e-41 7.4146e-41 -1.42747e-40
-1.625e-40 -1.68499e-40 -3.0156e-41 -1.53769e-40 -5.8814e-41 -6.1405e-41 8.6687e-41 -5.4833e-41
1.01404e-40 1.7676e-41 -1.05857e-40 6.6427e-41 -2.992e-41 9.8799e-41 4.4201e-41 3.917e-42
-7.669e-41 7.306e-41 1.36826e-40 1.03828e-40 1.19566e-40 9.2393e-41 -1.18694e-40 -1.15386e-40
-1.24924e-40 1.84873e-40 -5.0326e-41 -8.5797e-41 -9.7082e-41 1.23949e-40 1.14281e-40 4.6698e-41
-5.3524e-41 2.438e-41 -1.31202e-40 -1.24075e-40 -2.473e-42 6.094e-42 -9.7128e-41 -1.972e-42
1.63851e-40 -8.1975e-41 1.12975e-40 -1.39107e-40 1.17177e-40 -8.2279e-41 1.14445e-40 -8.2941e-41
-1.87253e-40 -8.2172e-41 -9.9401e-41 -9.0656e-41 -5.8982e-41 2.00988e-40 7.3715e-41 -1.85773e-40
-1.86617e-40 6.0979e-41 9.536e-41 -1.82452e-40 -2.02521e-40 5.974e-41 1.37797e-40 1.06846e-40
00000000: e003 0000 a695 0080 d47e 0000 ce2b 0100
00000010: 4409 0000 352b 0100 fe24 0280 b761 0100
00000020: d66d 0080 e395 0000 bc30 0000 fb46 0080
00000030: b1ae 0000 8d03 0180 fd81 0100 9711 0080
00000040: 6bc0 0000 5f20 0180 7424 0000 7b50 0180
00000050: 4d9b 0000 d453 0180 3726 0080 35b9 0080
00000060: 7a9e 0000 3b8a 0180 1493 0000 f9c3 0080
00000070: 0e96 0180 38c0 0000 b6e5 0180 7d11 0080
00000080: 95b9 0000 7023 0000 1876 0080 d897 0080
00000090: cff7 0080 700d 0080 4018 0000 beff 0000
000000a0: 7d26 0000 c03a 0080 2810 0080 5197 0180
000000b0: 2868 0000 3419 0000 1347 0180 f90e 0000
000000c0: d53a 0180 df0f 0080 167f 0000 7e8c 0080
000000d0: 8562 0080 751d 0080 669a 0100 f26f 0100
000000e0: 5f56 0080 5dd5 0000 2a3f 0000 ce54 0100
000000f0: def8 0080 821b 0100 bf37 0000 352c 0100
00000100: 6349 0100 7789 0000 62bb 0080 e80f 0100
00000110: c0dd 0000 7448 0000 d446 0080 a140 0100
00000120: 6707 0080 bbd1 0180 6321 0080 4f1b 0000
00000130: 4d94 0100 8f79 0080 a04d 0080 aa07 0100
00000140: 3139 0100 f611 0180 4f7d 0000 c1ec 0100
00000150: ea04 0080 e35d 0080 01a7 0080 428d 0100
00000160: bb1c 0280 8f42 0180 f4f9 0100 2389 0080
00000170: 485f 0100 8f33 0180 fd0b 0000 0ac6 0080
00000180: fc81 0080 0209 0100 9e4a 0080 c1c3 0180
00000190: 2370 0180 e947 0000 0e3a 0100 061c 0100
000001a0: 103f 0180 5d21 0100 af65 0080 c801 0180
000001b0: 6636 0280 c935 0100 cb0a 0280 824a 0180
000001c0: 4f54 0180 bc8c 0000 96be 0100 9f5b 0100
000001d0: a127 0080 0fc0 0180 1139 0100 b1b3 0000
000001e0: ae70 0000 f33b 0080 e841 0100 0f23 0280
000001f0: 9702 0080 f557 0000 48c1 0080 115f 0080
00000200: add6 0080 e09a 0000 874e 0080 9c1f 0100
00000210: 5e04 0080 006a 0080 cfa3 0080 434e 0000
00000220: d81c 0100 63fa 0080 0b43 0080 209c 0080
00000230: 0b05 0180 6071 0000 5a1d 0080 83c9 0000
00000240: a6c6 0080 ca58 0100 a913 0000 5ea6 0080
00000250: 08dd 0080 6f46 0180 59a2 0000 dc6f 0180
00000260: daa4 0080 00b1 0180 0123 0000 2b87 0000
00000270: da8f 0180 683d 0100 df2c 0200 049e 0000
00000280: 8697 0180 f41c 0100 a995 0000 2cbc 0180
00000290: 9f1a 0100 53c9 0080 50e0 0000 4894 0100
000002a0: 3a5f 0180 0ef6 0080 a61e 0100 c25d 0100
000002b0: 8de4 0080 4cf2 0080 c66d 0180 861f 0100
000002c0: c69b 0100 d2e2 0180 81d2 0100 69ad 0000
000002d0: 04e5 0080 3397 0000 8d0f 0000 e617 0000
000002e0: 14b3 0080 cc8f 0080 3313 0100 b6cf 0180
000002f0: 3a42 0000 c0dc 0080 b0ce 0000 ec8d 0180
00000300: fcc4 0180 b5d5 0180 1054 0080 a5ac 0180
00000310: f3a3 0080 2cab 0080 a6f1 0000 da98 0080
00000320: ac1a 0100 4631 0000 1627 0180 2cb9 0000
00000330: 6853 0080 6913 0100 377b 0000 eb0a 0000
00000340: c8d5 0080 a9cb 0000 6a7d 0100 6e21 0100
00000350: 4d4d 0100 8e01 0100 df4a 0180 a641 0180
00000360: 3d5c 0180 5a03 0200 4a8c 0080 2bef 0080
00000370: a00e 0180 8559 0100 923e 0100 2d82 0000
00000380: 3495 0080 f643 0000 bd6d 0180 df59 0180
00000390: e506 0080 fd10 0000 c10e 0180 7f05 0080
000003a0: c0c8 0100 83e4 0080 ee3a 0100 c683 0180
000003b0: a446 0100 5ce5 0080 073f 0100 35e7 0080
000003c0: fc09 0280 10e5 0080 1715 0180 b6fc 0080
000003d0: 6ba4 0080 4630 0200 7dcd 0000 dc05 0280
000003e0: 3608 0280 fca9 0000 d309 0100 9afc 0180
000003f0: 8c34 0280 88a6 0000 1f80 0100 d829 0100

module_31.bias f4 [32]
-9.2082e-41 1.03057e-40 8.1306e-41 1.26481e-40 -9.7226e-41 1.04854e-40 -2.5927e-41 -1.02432e-40
-6.051e-41 -1.94397e-40 9.144e-41 4.3468e-41 9.2247e-41 -2.7056e-41 7.3694e-41 -1.98466e-40
9.0455e-41 1.31774e-40 1.3311e-41 1.5106e-41 -1.32849e-40 6.4528e-41 -1.918e-42 1.12708e-40
2.4517e-41 1.5093e-40 1.17591e-40 -8.6369e-41 -3.867e-41 -1.21001e-40 9.3495e-41 4.0956e-41
00000000: b000 0180 481f 0100 a6e2 0000 9460 0100
00000010: 070f 0180 4a24 0100 4648 0080 8a1d 0180
00000020: ada8 0080 e61d 0280 e6fe 0000 2c79 0000
00000030: 2601 0100 6c4b 0080 6ecd 0000 3e29 0280
00000040: 27fc 0000 556f 0100 1b25 0000 1c2a 0000
00000050: 5472 0180 e1b3 0000 5905 0080 2f3a 0100
00000060: 5844 0000 bba4 0100 cc47 0100 c3f0 0080
00000070: cc6b 0080 4d51 0180 a004 0100 2b72 0000

module_32.weight f4 [32, 32, 1, 1]
8.4985e-41 -1.17991e-40 -6.0689e-41 1.1708e-40 1.55387e-40 2.6706e-41 1.27807e-40 2.7437e-41
4.745e-42 -1.08033e-40 7.8667e-41 -4.4924e-41 7.4528e-41 8.0903e-41 8.4221e-41 9.3056e-41
1.00526e-40 1.07667e-40 -7.793e-41 -1.60737e-40 -5.677e-42 -5.9754e-41 -7.79e-41 7.682e-41
3.7209e-41 -7.4269e-41 8.7881e-41 1.05411e-40 1.30656e-40 -1.35042e-40 2.00372e-40 1.26268e-40
-3.7752e-41 1.50619e-40 1.08643e-40 -1.17455e-40 7.6692e-41 -1.07435e-40 1.10596e-40 9.4937e-41
-1.015e-42 -1.148e-42 1.60146e-40 1.84631e-40 -4.3798e-41 -7.1197e-41 -3.058e-42 4.4256e-41
2.9765e-41 1.98713e-40 1.23966e-40 -5.8619e-41 -1.01874e-40 -6.8976e-41 8.7065e-41 4.5836e-41
-1.27283e-40 -1.32326e-40 9.201e-41 6.1171e-41 -4.4678e-41 -8.2808e-41 3.6627e-41 2.7855e-41
-4.1827e-41 -1.04339e-40 -1.9585e-41 1.81541e-40 -1.8586e-40 -1.77501e-40 -3.1215e-41 1.11384e-40
1.7463e-41 1.16658e-40 -1.037e-42 -1.36952e-40 1.3986e-40 7.3075e-41 -2.1468e-41 -1.60035e-40
-1.282e-42 1.59298e-40 6.3245e-41 1.30998e-40 1.396e-40 9.6608e-41 -1.01301e-40 1.57842e-40
-1.1132e-41 -9.324e-41 1.31718e-40 1.1944e-40 1.11768e-40 6.797e-41 9.1311e-41 -1.08355e-40
-6.8194e-41 9.7879e-41 1.41122e-40 -9.5281e-41 1.7693e-41 -1.04301e-40 1.29969e-40 1.57678e-40
-1.049e-41 9.0982e-41 -1.16702e-40 -1.21218e-40 1.90675e-40 1.52627e-40 -1.4773e-40 -1.31016e-40
1.58917e-40 8.7496e-41 1.1583e-40 1.81593e-40 -6.5149e-41 -1.26504e-40 8.3708e-41 1.02292e-40
-1.07921e-40 1.62234e-40 9.3827e-41 -1.12321e-40 1.42062e-40 -8.1002e-41 1.10044e-40 -8.3824e-41
-2.01982e-40 -8.5567e-41 1.15691e-40 8.034e-42 -1.39222e-40 1.7815e-41 1.1e-43 -1.13348e-40
9.7065e-41 -8.0697e-41 -8.5497e-41 7.0021e-41 1.3811e-40 3.5358e-41 1.27934e-40 9.1534e-41
-3.8663e-41 1.14745e-40 -1.43077e-40 1.4387e-40 -8.1815e-41 -1.07355e-40 -7.2456e-41 -1.5413e-40
-9.0951e-41 7.9037e-41 9.0378e-41 -1.58607e-40 7.799e-41 1.33107e-40 1.13951e-40 2.3898e-41
-1.9335e-41 -1.8766e-41 -3.374e-41 7.0481e-41 -1.88197e-40 -6.4233e-41 8.981e-41 -1.28467e-40
8.7154e-41 6.5756e-41 -1.95396e-40 1.05041e-40 4.7605e-41 1.78095e-40 -1.20032e-40 1.9457e-41
1.65832e-40 2.3931e-41 -6.2002e-41 2.00725e-40 -7.0837e-41 -1.92369e-40 -4.2237e-41 -9.201e-41
1.725e-41 1.78521e-40 -7.2158e-41 3.974e-42 -1.30509e-40 1.14144e-40 -1.11496e-40 -2.3392e-41
-8.325e-41 -9.197e-41 -9.9379e-41 1.36293e-40 1.11859e-40 -8.2415e-41 -1.5675e-41 -5.9184e-41
-1.22475e-40 -4.2242e-41 -1.64192e-40 -1.49841e-40 -9.2776e-41 -1.58385e-40 1.05274e-40 5.3478e-41
7.1099e-41 -1.24444e-40 -1.5951e-41 3.3568e-41 -1.2848e-40 -1.00666e-40 6.7007e-41 8.0371e-41
-1.12044e-40 -3.5576e-41 2.7607e-41 -2.388e-41 -1.05731e-40 -1.88077e-40 -1.29837e-40 -2.6206e-41
-4.944e-42 -1.09245e-40 5.4169e-41 -6.993e-41 4.9764e-41 1.88709e-40 -1.19165e-40 -1.07998e-40
1.06228e-40 -1.41419e-40 -1.871e-41 -4.7339e-41 1.59961e-40 -1.3065e-40 -1.0674e-40 -3.6144e-41
-2.3996e-41 -7.0649e-41 -6.0491e-41 1.12994e-40 4.696e-41 -1.99803e-40 6.7016e-41 -1.6547e-41
-1.8789e-41 -1.10583e-40 -1.04449e-40 -1.25696e-40 1.7729e-41 -9.4327e-41 -1.12697e-40 7.763e-42
00000000: e7ec 0000 e948 0180 2da9 0080 5f46 0100
00000010: 28b1 0100 724a 0000 4664 0100 7c4c 0000
00000020: 3a0d 0000 272d 0180 4bdb 0000 3b7d 0080
00000030: c1cf 0000 86e1 0000 c6ea 0000 6703 0100
00000040: 3a18 0100 222c 0100 3dd9 0080 12c0 0180
00000050: d30f 0080 92a6 0080 27d9 0080 25d6 0000
00000060: b967 0000 08cf 0080 faf4 0000 d825 0100
00000070: 376c 0100 7178 0180 8e2e 0200 fc5f 0100
00000080: 3d69 0080 dda3 0100 da2e 0100 6b47 0180
00000090: c9d5 0000 7c2b 0180 4c34 0100 a508 0100
000000a0: d402 0080 3303 0080 6cbe 0100 ad02 0200
000000b0: 177a 0080 78c6 0080 8608 0080 5e7b 0000
000000c0: f952 0000 ee29 0200 9159 0100 68a3 0080
000000d0: fc1b 0180 47c0 0080 b4f2 0000 c67f 0000
000000e0: d062 0180 df70 0180 7d00 0100 85aa 0000
000000f0: 8b7c 0080 d6e6 0080 1a66 0000 a64d 0000
00000100: 9974 0080 db22 0180 9836 0080 10fa 0100
00000110: 1a06 0280 cdee 0180 0457 0080 7e36 0100
00000120: ae30 0000 3245 0100 e402 0080 c47d 0180
00000130: df85 0100 b4cb 0000 d83b 0080 1dbe 0180
00000140: 9303 0080 0fbc 0100 4db0 0000 2b6d 0100
00000150: 2685 0100 4e0d 0100 631a 0180 00b8 0100
00000160: 081f 0080 ea03 0180 2d6f 0100 f34c 0100
00000170: 9037 0100 79bd 0000 8afe 0000 0d2e 0180
00000180: 19be 0080 d910 0100 6489 0100 9b09 0180
00000190: 5231 0000 c022 0180 4d6a 0100 8bb7 0100
000001a0: 3e1d 0080 9ffd 0000 5145 0180 e851 0180
000001b0: 8613 0200 76a9 0100 d09b 0180 386d 0180
000001c0: ffba 0100 e7f3 0000 e342 0100 35fa 0100
000001d0: 9cb5 0080 a460 0180 58e9 0000 261d 0100
000001e0: d72c 0180 3ec4 0100 8d05 0100 1b39 0180
000001f0: 038c 0100 cde1 0080 c232 0100 abe9 0080
00000200: 0b33 0280 87ee 0080 8042 0100 6516 0000
00000210: 1884 0180 a931 0000 4e00 0000 f83b 0180
00000220: 940e 0100 f3e0 0080 55ee 0080 31c3 0000
00000230: ff80 0100 9062 0000 a164 0100 29ff 0000
00000240: c76b 0080 dd3f 0100 d78e 0180 0d91 0100
00000250: 11e4 0080 432b 0180 fac9 0080 a7ad 0180
00000260: 89fd 0080 53dc 0000 f0fb 0000 22ba 0180
00000270: 68d9 0000 0c73 0100 a63d 0100 9e42 0000
00000280: e635 0080 5034 0080 0e5e 0080 79c4 0000
00000290: 9e0c 0280 0eb3 0080 5bfa 0000 1d66 0180
000002a0: f3f2 0000 4db7 0000 af20 0280 d024 0100
000002b0: b484 0000 75f0 0100 9a4e 0180 3d36 0000
000002c0: 46ce 0100 b642 0000 d6ac 0080 8a2f 0200
000002d0: 77c5 0080 3f18 0280 bd75 0080 7d00 0180
000002e0: 1630 0000 a5f1 0100 26c9 0080 140b 0000
000002f0: ce6b 0180 303e 0100 ce36 0180 3541 0080
00000300: 11e8 0080 6000 0180 0715 0180 ee7b 0100
00000310: d137 0100 bde5 0080 b22b 0080 fba4 0080
00000320: 6955 0180 c175 0080 b3c9 0180 b2a1 0180
00000330: 9f02 0180 83b9 0180 7625 0100 1395 0000
00000340: 32c6 0000 e65a 0180 772c 0080 935d 0000
00000350: 2666 0180 9e18 0180 caba 0000 0be0 0000
00000360: 5538 0180 2c63 0080 f54c 0000 9142 0080
00000370: bc26 0180 480c 0280 ef69 0180 0d49 0080
00000380: c80d 0080 8830 0180 0097 0000 f0c2 0080
00000390: b98a 0000 0b0e 0200 2f4c 0180 0e2d 0180
000003a0: 1f28 0100 388a 0180 2834 0080 f683 0080
000003b0: e8bd 0100 336c 0180 8c29 0180 c164 0080
000003c0: e442 0080 f1c4 0080 a0a8 0080 fb3a 0100
000003d0: e882 0000 f82c 0280 d0ba 0000 202e 0080
000003e0: 6034 0080 4334 0180 2923 0180 645e 0180
000003f0: 6c31 0000 f206 0180 273a 0180 a415 0000

module_32.bias f4 [32]
-1.1345e-41 -5.8047e-41 -1.56386e-40 -2.912e-42 8.1875e-41 5.0115e-41 -9.6212e-41 1.33216e-40
-1.29191e-40 -8.033e-41 1.15875e-40 1.14445e-40 -1.00298e-40 3.7968e-41 6.0406e-41 -1.85693e-40
-5.8365e-41 -1.83265e-40 5.7927e-41 1.2077e-40 1.437e-40 -1.93766e-40 7.236e-41 1.92471e-40
6.3651e-41 -4.8436e-41 -3.57e-41 4.2119e-41 1.80336e-40 3.2706e-41 -9.494e-41 2.3364e-41
00000000: a01f 0080 d0a1 0080 f1b3 0180 1e08 0080
00000010: 3ce4 0000 b38b 0000 330c 0180 5a73 0100
00000020: 2268 0180 eddf 0080 0343 0100 073f 0100
00000030: 9717 0180 d769 0000 63a8 0000 a305 0280
00000040: b3a2 0080 defe 0180 7aa1 0000 a850 0100
00000050: 9490 0100 241c 0280 b6c9 0000 8818 0200
00000060: 6fb1 0000 0587 0080 8463 0080 6975 0000
00000070: b4f6 0100 2c5b 0000 a708 0180 2141 0000

module_35.weight f4 [64, 1, 3, 3]
1.37605e-40 2.4761e-41 1.4667e-40 2.7363e-41 3.5705e-41 -7.1518e-41 2.6398e-41 1.27218e-40
9.3495e-41 1.43238e-40 -1.08434e-40 -1.32285e-40 -1.27011e-40 1.30345e-40 1.86375e-40 1.77055e-40
1.43249e-40 -1.71634e-40 -4.1006e-41 -9.5797e-41 -1.96222e-40 5.7048e-41 -1.4327e-41 -1.52199e-40
-1.86434e-40 -9.5098e-41 -6.9754e-41 4.291e-41 -1.47981e-40 1.93592e-40 1.59901e-40 -1.26913e-40
4.327e-41 -1.84341e-40 -1.71365e-40 -1.4616e-41 -1.0968e-40 -7.0522e-41 1.7181e-41 6.2519e-41
-1.5051e-40 -8.3003e-41 -1.3996e-41 4.4487e-41 -9.9227e-41 1.18446e-40 -1.8151e-41 1.14402e-40
-2.0668e-41 3.454e-42 -8.8209e-41 4.3852e-41 3.2691e-41 7.3413e-41 4.1932e-41 -1.9084e-41
-1.01171e-40 1.3878e-40 -2.4377e-41 -8.1623e-41 -4.3185e-41 -1.4475e-41 4.8846e-41 -1.0303e-40
1.58387e-40 -1.4841e-40 1.19926e-40 1.91702e-40 1.44369e-40 -1.01584e-40 1.48292e-40 5.4887e-41
9.6465e-41 2.469e-42 -1.16609e-40 1.19173e-40 -8.5831e-41 1.70723e-40 -1.21898e-40 1.8521e-40
-1.3538e-41 -5.8912e-41 1.01021e-40 1.28634e-40 1.55443e-40 -1.24706e-40 -1.41747e-40 5.7934e-41
8.87e-42 1.13355e-40 3.9365e-41 1.01596e-40 -1.13306e-40 3.2228e-41 -6.9743e-41 -2.02816e-40
-1.96972e-40 2.3647e-41 1.10002e-40 -1.71555e-40 5.6568e-41 -7.5793e-41 -7.2377e-41 -1.76056e-40
-1.05169e-40 6.4776e-41 -4.5147e-41 -1.67961e-40 -2.5307e-41 9.2585e-41 1.21323e-40 -1.95534e-40
1.19007e-40 1.89774e-40 -2.4199e-41 -1.04393e-40 -9.7174e-41 -1.33394e-40 -3.1137e-41 1.23466e-40
-1.13564e-40 1.86678e-40 -1.04943e-40 6.1106e-41 -9.6021e-41 9.7748e-41 4.108e-41 1.23824e-40
-1.67827e-40 6.0858e-41 -5.8967e-41 -1.48452e-40 3.6662e-41 1.58714e-40 -7.2863e-41 -1.30684e-40
-1.38722e-40 -1.8626e-41 1.57265e-40 5.541e-42 -1.48532e-40 -1.991e-41 -1.8267e-41 -1.11339e-40
-1.432e-41 -6.097e-41 1.88141e-40 1.08489e-40 1.41429e-40 -4.802e-41 -1.78077e-40 3.512e-41
-7.1969e-41 9.3916e-41 1.44614e-40 9.7536e-41 9.5127e-41 1.12327e-40 -9.1463e-41 2.33e-42
4.9975e-41 -1.12373e-40 -8.4941e-41 2.5452e-41 9.9264e-41 -1.10781e-40 -1.42609e-40 -8.6007e-41
-7.8806e-41 6.0787e-41 2.3263e-41 -1.5708e-40 -1.52737e-40 1.02857e-40 -1.04796e-40 8.4379e-41
9.181e-42 -6.889e-41 6.386e-42 -7.355e-42 3.6107e-41 1.40777e-40 1.56235e-40 5.2749e-41
2.513e-42 -1.07841e-40 1.4907e-40 -8.409e-41 -7.4972e-41 -9.234e-41 1.16903e-40 -1.11769e-40
-4.2737e-41 -9.1517e-41 -7.8449e-41 -1.88632e-40 1.00006e-40 -8.0328e-41 -1.0772e-40 -1.84082e-40
1.1685e-40 -5.8185e-41 1.77717e-40 -1.4426e-41 -4.0821e-41 7.8656e-41 -1.40791e-40 -6.5711e-41
1.56417e-40 1.17059e-40 -1.2471e-40 -8.3167e-41 1.30445e-40 -5.4014e-41 -5.2888e-41 -7.6507e-41
1.14352e-40 -6.2377e-41 1.235e-41 -1.041e-41 -9.1543e-41 -5.3167e-41 -2.1192e-41 -9.8588e-41
-3.575e-42 7.2423e-41 1.9129e-41 1.1504e-40 1.23589e-40 -1.2192e-40 -1.30839e-40 -5.9854e-41
3.2405e-41 -1.51494e-40 -1.5637e-41 4.3167e-41 4.179e-42 -9.3575e-41 7.7626e-41 -3.271e-41
1.1523e-41 1.02889e-40 -1.15899e-40 9.821e-41 -1.85232e-40 -1.52508e-40 -2.8316e-41 1.77634e-40
1.611e-41 5.3628e-41 9.509e-41 1.07817e-40 -5.4268e-41 6.4196e-41 1.06245e-40 1.11052e-40
00000000: 967f 0100 0645 0000 db98 0100 474c 0000
00000010: 8863 0000 5dc7 0080 9649 0000 a262 0100
00000020: a004 0100 4a8f 0100 452e 0180 c270 0180
00000030: 0e62 0180 596b 0100 8a07 0200 8fed 0100
00000040: 528f 0100 72de 0180 4f72 0080 0b0b 0180
00000050: fd22 0280 079f 0000 f027 0080 45a8 0180
00000060: b407 0280 1809 0180 72c2 0080 9e77 0000
00000070: 839c 0180 a81b 0200 bdbd 0100 c861 0180
00000080: 9f78 0000 de01 0280 b2dd 0180 be28 0080
00000090: be31 0180 96c4 0080 e52f 0000 47ae 0000
000000a0: 90a3 0180 61e7 0080 0427 0080 037c 0000
000000b0: 9b14 0180 2e4a 0100 9932 0080 e83e 0100
000000c0: 9d39 0080 a109 0000 e4f5 0080 3e7a 0000
000000d0: 215b 0000 a5cc 0000 e474 0000 3335 0080
000000e0: 061a 0180 dd82 0100 f443 0080 88e3 0080
000000f0: 6278 0080 5a28 0080 2a88 0000 351f 0180
00000100: 85b9 0100 b59d 0180 4e4e 0100 6316 0200
00000110: 7192 0100 2d1b 0180 619d 0100 0199 0000
00000120: e80c 0100 e206 0000 0f45 0180 354c 0100
00000130: 43ef 0080 e8db 0100 cd53 0180 4a04 0200
00000140: bd25 0080 39a4 0080 9b19 0100 9466 0100
00000150: 50b1 0100 a15b 0180 228b 0180 7fa1 0000
00000160: ba18 0000 fd3b 0100 bc6d 0000 351b 0100
00000170: da3b 0180 d759 0000 6ac2 0080 5e35 0280
00000180: 1425 0280 eb41 0000 a432 0100 3ade 0180
00000190: b09d 0000 48d3 0080 c2c9 0080 c6ea 0180
000001a0: 2b25 0180 92b4 0000 da7d 0080 35d4 0180
000001b0: 8c46 0080 1702 0100 3352 0100 1221 0280
000001c0: be4b 0100 0311 0200 7543 0080 0123 0180
000001d0: e20e 0180 d973 0180 cc56 0080 2c58 0100
000001e0: 923c 0180 6208 0200 8a24 0180 57aa 0000
000001f0: ab0b 0180 7b10 0100 8472 0000 2c59 0100
00000200: d5d3 0180 a6a9 0000 60a4 0080 d39d 0180
00000210: 3366 0000 6eba 0100 1dcb 0080 4b6c 0180
00000220: b382 0180 ec33 0080 64b6 0100 720f 0000
00000230: 0c9e 0180 8037 0080 ec32 0080 5e36 0180
00000240: eb27 0080 f6a9 0080 760c 0200 6c2e 0100
00000250: 3f8a 0100 dc85 0080 68f0 0180 e661 0000
00000260: 9fc8 0080 cd05 0100 2093 0100 e40f 0100
00000270: 2d09 0100 1f39 0100 f6fe 0080 7f06 0000
00000280: 4f8b 0000 4039 0180 c8ec 0080 f346 0000
00000290: b514 0100 d034 0180 898d 0180 c1ef 0080
000002a0: aedb 0080 73a9 0000 d940 0000 e0b5 0180
000002b0: c5a9 0180 b91e 0100 2124 0180 37eb 0000
000002c0: 9819 0000 0ac0 0080 cd11 0000 8114 0080
000002d0: a764 0000 6e88 0100 85b3 0100 0b93 0000
000002e0: 0107 0000 9e2c 0180 8c9f 0100 69ea 0080
000002f0: fed0 0080 6801 0180 e145 0100 9137 0180
00000300: 2277 0080 1dff 0080 afda 0080 d40d 0280
00000310: c716 0100 ecdf 0080 482c 0180 2501 0280
00000320: bb45 0100 32a2 0080 67ef 0100 3728 0080
00000330: cb71 0080 43db 0000 7888 0180 2db7 0080
00000340: 07b4 0100 5046 0100 a45b 0180 d6e7 0080
00000350: a16b 0100 9296 0080 6e93 0080 45d5 0080
00000360: c43e 0100 e2ad 0080 6d22 0000 051d 0080
00000370: 2fff 0080 3594 0080 133b 0080 d312 0180
00000380: f709 0080 e3c9 0000 5335 0000 af40 0100
00000390: 8458 0100 dd53 0180 ba6c 0180 d9a6 0080
000003a0: 555a 0000 4ea6 0180 972b 0080 5578 0000
000003b0: a60b 0000 d904 0180 64d8 0000 2f5b 0080
000003c0: 1f20 0000 d01e 0100 1443 0180 c511 0100
000003d0: 5a04 0280 21a9 0180 ef4e 0080 2cef 0100
000003e0: e82c 0000 7e95 0000 1209 0100 8d2c 0100
000003f0: 4797 0080 f4b2 0000 2b28 0100 9135 0100

module_35.bias f4 [64]
-1.01566e-40 -1.03424e-40 -1.59992e-40 2.064e-41 -1.28081e-40 1.26568e-40 -9.3675e-41 1.07e-42
-1.8446e-40 2.6085e-41 -1.3333e-41 4.8653e-41 2.6378e-41 1.4364e-40 9.2999e-41 -3.5572e-41
5.1381e-41 4.516e-41 -1.05215e-40 1.1115e-40 -1.76442e-40 -7.572e-41 -1.24025e-40 1.03375e-40
1.75598e-40 -4.1065e-41 1.7516e-41 1.278e-41 8.7332e-41 9.9778e-41 -2.3678e-41 7.158e-41
-1.84045e-40 1.46946e-40 -2.5121e-41 1.7761e-40 -3.072e-42 4.931e-41 -1.24802e-40 1.3334e-40
-3.3651e-41 1.32056e-40 8.7608e-41 -5.0871e-41 -7.3918e-41 -4.5738e-41 -9.9767e-41 1.47697e-40
2.164e-42 -9.192e-41 1.8735e-40 -8.2622e-41 -1.01046e-40 1.21275e-40 1.8759e-41 -7.7565e-41
-3.72e-41 1.52897e-40 -9.7e-41 1.17768e-40 -9.4076e-41 -1.51148e-40 5.999e-41 1.27168e-40
00000000: 201b 0180 4e20 0180 febd 0180 8939 0000
00000010: 0a65 0180 d260 0100 2105 0180 fc02 0000
00000020: 3302 0280 b748 0000 2b25 0080 a087 0000
00000030: 8849 0000 6990 0100 3e03 0100 2963 0080
00000040: 3b8f 0000 e37d 0000 4c25 0180 d735 0100
00000050: d9eb 0180 14d3 0080 bb59 0180 2b20 0100
00000060: 7fe9 0100 7972 0080 d430 0000 a023 0000
00000070: 72f3 0000 2416 0100 0142 0080 89c7 0000
00000080: 0b01 0280 a099 0100 0746 0080 1bef 0100
00000090: 9008 0080 7589 0000 e65b 0180 b373 0100
000000a0: ce5d 0080 1e70 0100 37f4 0000 cf8d 0080
000000b0: 0ece 0080 807f 0080 1c16 0180 b89b 0100
000000c0: 0806 0000 3c00 0180 410a 0200 51e6 0080
000000d0: ad19 0180 1152 0100 4b34 0000 38d8 0080
000000e0: b367 0080 37aa 0100 660e 0180 4a48 0100
000000f0: 3f06 0180 57a5 0180 3aa7 0000 7e62 0100
